scripts/green_ml/green.tflite (tflite, 129696 bytes, 8 tensors)

sequential/dense/BiasAdd/ReadVariableOp f4 [16]
-0.010192588 -0.035866737 -0.16938347 0.14694299 -0.38034216 -0.21824999 -0.010555109 0.14885327
-0.020601436 0.13269496 -0.48757187 0.3138716 0.48717675 0.1234665 -0.008123681 0.5874296
00000000: d0fe 26bc 00e9 12bd dc72 2dbe 3978 163e
00000010: 35bc c2be ed7c 5fbe 56ef 2cbc fe6c 183e
00000020: 58c4 a8bc 30e1 073e 05a3 f9be c7b3 a03e
00000030: 3b6f f93e 01dc fc3d 3019 05bc c961 163f

sequential/dense_1/BiasAdd/ReadVariableOp f4 [3]
-0.21920441 -0.2439987 0.68182206
00000000: 1f77 60be ccda 79be e48b 2e3f

sequential/conv2d/BiasAdd/ReadVariableOp f4 [8]
-0.02372611 -0.18564314 -0.27681327 -0.34136853 0.23465599 0.21063943 -0.07852576 -0.34982598
00000000: 425d c2bc 3c19 3ebe 78ba 8dbe dbc7 aebe
00000010: a949 703e ddb1 573e 1dd2 a0bd 641c b3be

sequential/conv2d_1/BiasAdd/ReadVariableOp f4 [8]
0.048513196 -0.24428335 -0.30905554 -0.33606794 -0.060840208 -0.4260015 -0.17555378 0.37769464
00000000: c6b5 463d 6a25 7abe 873c 9ebe 1911 acbe
00000010: 9533 79bd de1c dabe 5fc4 33be 3161 c13e

sequential/dense/MatMul f4 [16, 1920]
-0.024294026 -0.031537905 -0.030923838 0.031342745 0.005423586 -0.018268472 -0.0070694117 0.025295846
-0.04262282 -0.053437427 -0.029313086 -0.047814228 0.01107423 0.019102111 -0.057680216 -0.04415724
-0.054721892 -0.05613957 -0.035584174 -0.028084848 -0.061046425 0.014329407 -0.014869193 -0.03467298
0.008713595 -0.029361285 0.03146298 -0.012255441 0.028515017 -0.045387145 0.022981552 0.006054455
0.029861841 -0.016871905 -0.014066071 -0.051619332 -0.040649667 -0.01365581 -0.0009907408 -0.03854757
-0.0040526693 0.004708673 0.00840047 0.0074633616 -0.0021987483 0.043076582 0.026795512 -0.0026994522
0.015655613 0.027328137 0.015188341 0.044767868 -0.037191093 -0.025066493 -0.035494976 0.022026815
0.035243634 -0.027754227 0.022145351 -0.006849786 -0.0005249207 -0.06272212 0.016086483 -0.016530853
0.02327387 0.011256363 -0.060218807 -0.04605072 0.042009868 -0.039021775 -0.052399755 -0.033019345
0.019106189 0.014312044 -0.054584254 -0.04811894 0.035900682 0.044679888 -0.05082299 -0.06371552
0.015611154 -0.02671248 -0.03704712 0.009432257 0.040520433 -0.025415367 -0.013214602 0.016539227
-0.03934694 0.026687797 -0.0022540586 0.017251369 -0.011146161 0.042203672 0.007425586 -0.00029103443
0.019964468 -0.01892953 -0.01694086 -0.0037288729 0.008829656 -0.04214191 0.01019983 -0.0315627
0.032456283 0.041209877 0.023431446 -0.05712305 0.027667835 0.03753128 -0.05787745 0.0026730443
-0.022872703 2.3342362e-05 -0.037411306 -0.068094306 0.0102015035 0.031618055 -0.032875605 -0.004869744
0.007179293 -0.01666668 0.021958 -0.06259465 0.010227239 -0.04892899 -0.04752988 -0.029149756
0.007538779 -0.042588416 0.03345168 0.002559375 -0.019634906 0.040077697 0.018201752 0.022042027
0.01653982 -0.005545546 -0.047057252 0.03217733 -0.03985369 -0.03865649 -0.009832356 0.010356571
-0.0013244365 -0.030754315 -0.057648886 0.019998841 -0.048412226 -0.055774275 -0.00044931268 -0.033320937
0.010678684 -0.04534373 -0.010420298 0.0068086246 0.04569025 0.02087906 -0.037473533 -0.029540263
-0.026180763 -0.054554403 0.034147125 -0.017784921 -0.058650304 0.013316756 0.03425229 -0.012281301
-0.008266211 0.04622112 0.0022487158 -0.025006859 -0.042801693 -0.043374307 -0.048396118 -0.020851526
-0.07080853 -0.052048042 -0.059075367 0.03772468 0.036247488 0.013314729 -0.05019779 -0.022575174
0.011621588 -0.052859113 -0.038335495 0.009663503 0.037590533 0.046797648 -0.04099478 -0.04763454
0.019652331 0.037369154 0.01565671 -0.026552776 -0.061157253 -0.012528606 -0.06893485 -0.07596987
-0.026779491 0.034774102 -0.027842192 0.015126263 -0.03269165 0.036155134 0.0073022307 -0.047989834
-0.023187459 0.01827212 -0.014615702 0.039158314 -0.06396762 0.017607575 0.016655616 -0.015411954
-0.012013281 0.030280244 0.04401841 -0.028451493 0.020888628 -0.0076167244 0.05960727 -0.064182416
-0.035814673 0.026554873 0.039801992 -0.027323369 0.03876478 -0.041679576 -0.033592053 -0.040555358
-0.043940693 0.009417872 -0.012341494 0.017506965 -0.035873417 -0.035297964 -0.018117683 0.035221208
0.044552077 0.0440925 -0.005762137 0.00758179 -0.05536277 -0.044018917 -0.050834 0.0024532832
-0.0089157075 -0.010645328 -0.018712152 0.025433736 0.016407013 0.019131526 0.016237931 0.025543444
00000000: 4404 c7bc e42d 01bd fd53 fdbc 4061 003d
00000010: 56b8 b13b c3a7 95bc 86a6 e7bb 3c39 cf3c
00000020: 4495 2ebd 34e1 5abd ff21 f0bc dad8 43bd
00000030: b070 353c 087c 9c3c 1742 6cbd 39de 34bd
00000040: 1024 60bd 9bf2 65bd b6c0 11bd 3212 e6bc
00000050: d10b 7abd e4c5 6a3c ea9d 73bc 4105 0ebd
00000060: 77c3 0e3c 1487 f0bc 53df 003d 0ccb 48bc
00000070: 5398 e93c dfe7 39bd cf43 bc3c 7364 c63b
00000080: d2a0 f43c f336 8abc 6175 66bc cb6e 53bd
00000090: 4480 26bd 9ebc 5fbc bfdb 81ba 0fe4 1dbd
000000a0: 41cc 84bb 364b 9a3b 20a2 093c 378f f43b
000000b0: e018 10bb 1271 303d 4382 db3c 4be9 30bb
000000c0: 3340 803c 42df df3c 85d8 783c 835e 373d
000000d0: b055 18bd 3f58 cdbc 2e63 11bd 9471 b43c
000000e0: a15b 103d d55c e3bc 2b6a b53c 2b74 e0bb
000000f0: d59a 09ba 7474 80bd cdc7 833c b66b 87bc
00000100: d8a8 be3c 9c6c 383c ffa7 76bd ae9f 3cbd
00000110: 8a12 2c3d 4cd5 1fbd 20a1 56bd 4b3f 07bd
00000120: 9584 9c3c 107d 6a3c bd93 5fbd 5e18 45bd
00000130: 980c 133d 4202 373d c42b 50bd 487d 82bd
00000140: edc5 7f3c 21d4 dabc b9be 17bd c189 1a3c
00000150: c1f8 253d e333 d0bc 0f82 58bc 467d 873c
00000160: 422a 21bd 5ea0 da3c d4b8 13bb be52 8d3c
00000170: 639e 36bc c2dd 2c3d 5552 f33b fb95 98b9
00000180: 868c a33c 1a12 9bbc 8fc7 8abc 1b60 74bb
00000190: 43aa 103c ff9c 2cbd 301d 273c e447 01bd
000001a0: e1f0 043d b0cb 283d 4ef3 bf3c dcf9 69bd
000001b0: a8a7 e23c 66ba 193d e810 6dbd 3e2e 2f3b
000001c0: 895f bbbc 57cf c337 993c 19bd 0775 8bbd
000001d0: 3524 273c ef81 013d 92a8 06bd 6092 9fbb
000001e0: 4640 eb3b 9088 88bc 43e1 b33c a031 80bd
000001f0: 2690 273c c469 48bd b1ae 42bd 78cb eebc
00000200: dd07 f73b 3171 2ebd a104 093d 30bb 273b
00000210: 62d9 a0bc 8328 243d d71b 953c 7b91 b43c
00000220: 847e 873c 69b7 b5bb 1bbf 40bd 60cc 033d
00000230: 9f3d 23bd 4556 1ebd e417 21bc 9bae 293c
00000240: b798 adba 79f0 fbbc 3d21 6cbd 9cd4 a33c
00000250: e64b 46bd 9173 64bd ba91 ebb9 897b 08bd
00000260: a6f5 2e3c 59ba 39bd e6b9 2abc e21a df3b
00000270: b325 3b3d 900a ab3c d97d 19bd 6cfe f1bc
00000280: 0a79 d6bc 7074 5fbd dbdd 0b3d afb1 91bc
00000290: 4d3b 70bd 862e 5a3c 214c 0c3d 8337 49bc
000002a0: 006f 07bc 5b52 3d3d 315f 133b 2fdb ccbc
000002b0: d450 2fbd 42a9 31bd 023b 46bd d2d0 aabc
000002c0: 1004 91bd 5430 55bd 03f9 71bd 3285 1a3d
000002d0: 3f78 143d 0526 5a3c 339c 4dbd 92ef b8bc
000002e0: 7968 3e3c cc82 58bd ae05 1dbd ab53 1e3c
000002f0: 88f8 193d e4ae 3f3d 24ea 27bd 6f1c 43bd
00000300: edfd a03c 6610 193d 8042 803c 3585 d9bc
00000310: 0780 7abd c844 4dbc b72d 8dbd 1796 9bbd
00000320: aa60 dbbc 4a6f 0e3d 4f15 e4bc 25d4 773c
00000330: aee7 05bd 6817 143d 8d47 ef3b fd90 44bd
00000340: a0f3 bdbc 6aaf 953c b376 6fbc 7864 203d
00000350: 7501 83bd c33d 903c 5c71 883c 6c82 7cbc
00000360: 5ad3 44bc 460e f83c a64c 343d 1b13 e9bc
00000370: a11e ab3c b795 f9bb c126 743d 1272 83bd
00000380: 68b2 12bd 9b89 d93c 6a07 233d 42d5 dfbc
00000390: d1c7 1e3d 34b8 2abd d297 09bd 601d 26bd
000003a0: 28fb 33bd 6b4d 1a3c fa33 4abc c46a 8f3c
000003b0: 01f0 12bd 9994 10bd 896b 94bc 1d44 103d
000003c0: 3d7c 363d 569a 343d 4fd0 bcbb aa70 f83b
000003d0: 12c4 62bd 2e4d 34bd 5037 50bd 43c7 203b
000003e0: 3013 12bc be69 2ebc 3a4a 99bc 695a d03c
000003f0: 0068 863c b8b9 9c3c 6905 853c 7c40 d13c

sequential/dense_1/MatMul f4 [3, 16]
0.15663438 0.33391875 0.4520745 -0.42984357 0.15155686 0.34698614 0.40573755 0.41196167
-0.4925824 0.077659495 0.339478 0.91207963 0.19068217 -0.19853716 0.36445305 0.08854591
0.2627092 0.49007952 0.09853912 -0.17099425 0.19918063 0.008993612 0.11609474 -0.6626303
0.29411164 0.08370189 0.6161199 -0.47601357 -0.7416989 -0.13602604 0.24442607 -0.5822228
0.101794936 -0.21235159 0.22935545 0.6154817 -1.0733368 -1.0159132 -0.1606643 -0.19546227
-0.5386116 0.59472084 -0.49368766 0.6157981 0.43703675 0.21452452 -0.28602403 0.5169375
00000000: c364 203e 66f7 aa3e 4f76 e73e 7514 dcbe
00000010: b931 1b3e 2ba8 b13e d5bc cf3e a4ec d23e
00000020: c333 fcbe f10b 9f3d 0fd0 ad3e 0d7e 693f
00000030: 3042 433e 534d 4bbe 9799 ba3e 8f57 b53d
00000040: d281 863e b4eb fa3e e1ce c93d 1e19 2fbe
00000050: 02f6 4b3e f159 133c 14c3 ed3d 24a2 29bf
00000060: cd95 963e e66b ab3d 09ba 1d3f 0db8 f3be
00000070: fbdf 3dbf 694a 0bbe d44a 7a3e 8e0c 15bf
00000080: dd79 d03d b272 59be 28dc 6a3e 3590 1d3f
00000090: 1a63 89bf 7209 82bf 2f85 24be 4327 48be
000000a0: 73e2 09bf a03f 183f a1c4 fcbe f2a4 1d3f
000000b0: 48c3 df3e 51ac 5b3e be71 92be 0456 043f

sequential/conv2d/Conv2D f4 [8, 3, 3, 3]
0.21497807 0.24961634 0.21351542 -0.049036104 0.28150657 -0.005257327 -0.05696251 0.017859906
-0.07991354 -0.1001952 0.47048238 -0.02175496 0.33778492 0.28790122 0.24565615 -0.07999098
0.3893195 -0.13241807 -0.43591937 -0.31374013 -0.20044057 -0.3401676 -0.36104378 -0.0993766
-0.12419337 0.023080908 -0.30780265 0.39929947 0.2513698 0.43594792 0.3583754 0.17413087
-0.021346152 0.07542693 0.112228 -0.073581174 -0.017058179 -0.027331738 0.31770653 -0.1251065
-0.27293083 0.17663568 -0.25840792 -0.31359035 -0.105752446 -0.0884237 0.041892927 0.30089346
-0.064561225 0.17490798 0.28931722 -0.16445224 -0.08220152 -0.1706359 -0.18733919 0.12658094
-0.2323446 0.041752912 0.12106335 -0.23794104 -0.14206728 0.067963526 -0.24494042 -0.037856128
0.04570715 0.027071279 -0.13927647 0.13445687 0.17276528 -0.22644465 -0.0981356 -0.086048804
0.28712562 0.30247882 0.40669113 0.37442973 0.37398258 0.32459062 -0.33810294 0.06059257
0.03683807 -0.013332381 -0.47185817 -0.22434439 0.25397536 -0.13789892 0.27828413 0.07070263
0.18123329 0.30339614 -0.09781476 -0.20908011 0.04560088 -0.09244844 0.092034936 0.07359786
-0.09387013 -0.30961064 0.22325532 -0.008379163 0.1860239 0.1957906 0.018409878 -0.033525303
-0.005504379 0.193218 -0.029346544 0.3378606 -0.058837656 0.09359708 -0.123935305 -0.022131195
0.18803199 -0.061422296 -0.052253466 0.0190957 -0.03591776 -0.07513737 0.16907756 -0.16767986
-0.22343248 0.2322992 -0.12882623 -0.3890856 0.2973869 0.09394421 -0.24206652 0.325591
-0.15880084 -0.27521437 0.28672823 -0.031214256 -0.23656027 0.30692288 -0.16112259 0.1678552
-0.37298626 -0.3047673 0.25819483 0.040056597 -0.034550212 0.30792987 0.2620465 -0.08449649
0.1265239 0.31685576 0.19770485 -0.27226576 -0.21504371 -0.25548336 -0.17991032 -0.3033707
-0.48626432 0.27721912 0.21269311 0.04985363 -0.19038685 -0.14309797 0.10998164 -0.33293927
0.044604022 -0.29964477 0.014196467 -0.108890735 -0.14742795 0.028783211 0.21754222 0.0799504
0.11021196 0.28206185 -0.067956924 -0.44170216 -0.5695655 -0.5234468 -0.23369895 -0.4278117
-0.2230848 -0.07896875 -0.4258362 -0.31206045 0.43342152 0.27404898 0.38791734 0.1846638
0.29973024 0.27919292 -0.06282333 0.31946558 0.33302826 -0.0020907356 -0.16163373 0.2082224
0.15615661 0.12019813 -0.19750567 -0.08266601 -0.23847605 0.20152034 0.24436338 0.1488739
-0.14400153 -0.2710659 -0.0889833 -0.20884737 0.13916446 -0.34600082 -0.20813179 0.21916386
-0.24767295 0.24040467 0.13462885 0.3005572 0.24214579 0.38283575 0.085668884 0.24408832
00000000: 3623 5c3e 6d9b 7f3e c9a3 5a3e 15da 48bd
00000010: a121 903e a845 acbb 8551 69bd f04e 923c
00000020: b6a9 a3bd 2433 cdbd 11e3 f03e 7537 b2bc
00000030: 25f2 ac3e ca67 933e 498d 7b3e 50d2 a3bd
00000040: e354 c73e 9a98 07be d330 dfbe 8ca2 a0be
00000050: 4b40 4dbe 732a aebe bbda b8be f585 cbbd
00000060: 1859 febd 2c14 bd3c 4f98 9dbe fb70 cc3e
00000070: 8bb3 803e 9134 df3e fb7c b73e 5d4f 323e
00000080: 20de aebc 6f79 9a3d cbd7 e53d bab1 96bd
00000090: 98bd 8bbc cfe6 dfbc 6eaa a23e eb1b 00be
000000a0: 97bd 8bbe fcdf 343e 0b4e 84be ea8e a0be
000000b0: bd94 d8bd 7c17 b5bd eb97 2b3d b50e 9a3e
000000c0: ad38 84bd 141b 333e 6321 943e 2b66 28be
000000d0: 4559 a8bd 2dbb 2ebe d8d5 3fbe 6f9e 013e
000000e0: beeb 6dbe 1a05 2b3d 10f0 f73d d1a6 73be
000000f0: 167a 11be 7630 8b3d a9d1 7abe 070f 1bbd
00000100: 6c37 3b3d 96c4 dd3c 7e9e 0ebe 10af 093e
00000110: 62e9 303e 1be1 67be 51fb c8bd 5b3a b0bd
00000120: 2102 933e 81de 9a3e d239 d03e 41b5 bf3e
00000130: a57a bf3e be30 a63e d41b adbe ea2f 783d
00000140: 84e3 163d 0f70 5abc 6597 f1be 89ba 65be
00000150: 0f09 823e 6035 0dbe 427b 8e3e 8acc 903d
00000160: 3895 393e bd56 9b3e 1b53 c8bd 1919 56be
00000170: fdc7 3a3d 9c55 bdbd d07c bc3d 7aba 963d
00000180: fc3e c0bd 4985 9ebe 0b9d 643e c248 09bc
00000190: 0d7d 3e3e 557d 483e 50d0 963c d451 09bd
000001a0: 145e b4bb f0da 453e 2a68 f0bc 11fc ac3e
000001b0: c1ff 70bd d3af bf3d cbd1 fdbd 7b4c b5bc
000001c0: 758b 403e f295 7bbd bb07 56bd 966e 9c3c
000001d0: 801e 13bd 9fe1 99bd ab22 2d3e 45b4 2bbe
000001e0: 7ccb 64be d7df 6d3e 06eb 03be 3a36 c7be
000001f0: 1943 983e d265 c03d 49e0 77be ddb3 a63e
00000200: b09c 22be e6e8 8cbe 0bce 923e 0ab5 ffbc
00000210: db3c 72be ff24 9d3e 52fd 24be 3ce2 2b3e
00000220: 0ef8 bebe 760a 9cbe 1d32 843e 6312 243d
00000230: 8684 0dbd fca8 9d3e f52a 863e 7f0c adbd
00000240: 7b8f 013e eb3a a23e 2473 4a3e 6b66 8bbe
00000250: 6b34 5cbe b7ce 82be 693a 38be 6853 9bbe
00000260: a3f7 f8be aaef 8d3e 39cc 593e 5233 4c3d
00000270: c5f4 42be 4688 12be 0e3e e13d 0477 aabe
00000280: b5b2 363d 0a6b 99be 4c98 683c 1b02 dfbd
00000290: 5af7 16be c5ca eb3c 63c3 5e3e 09bd a33d
000002a0: cfb6 e13d 696a 903e 002d 8bbd c926 e2be
000002b0: 0bcf 11bf 9c00 06bf c74e 6fbe 230a dbbe
000002c0: 5870 64be 5eba a1bd 3407 dabe 63c6 9fbe
000002d0: 6de9 dd3e 2650 8c3e 1a9d c63e 8218 3d3e
000002e0: 3e76 993e 60f2 8e3e 85a9 80bd fe90 a33e
000002f0: ae82 aa3e b904 09bb 5083 25be 4138 553e
00000300: 85e7 1f3e 702a f63d ed3e 4abe cc4c a9bd
00000310: 1133 74be 595b 4e3e 653a 7a3e 6672 183e
00000320: 2375 13be 26c9 8abe e03c b6bd 16dc 55be
00000330: 2181 0e3e 0527 b1be 8020 55be 7e6c 603e
00000340: fa9d 7dbe a42c 763e 25dc 093e a2e2 993e
00000350: 11f5 773e 0c03 c43e 2b73 af3d 4af2 793e

sequential/conv2d_1/Conv2D f4 [8, 3, 3, 8]
0.3650226 0.042777937 0.32391635 0.11289252 0.42774123 0.034541428 0.17922688 0.002446529
0.5308342 0.06721774 0.21120286 -0.24701579 0.36350963 -0.04494327 -0.2687998 -0.07751207
0.10468119 -0.16147292 0.022398975 -0.110836335 0.6492196 -0.51417255 0.14634776 -0.21029842
0.04343539 0.12811284 -0.21289301 -0.017243631 0.12013163 -0.077734426 -0.6462437 -0.2388221
0.08394967 0.012050842 -0.26346615 -0.32179898 0.06347112 -0.019823955 -1.2826704 -0.17395101
0.1933844 -0.2935412 -0.1639591 0.05987238 0.30570397 -0.5447338 -0.62109923 -0.5119036
-0.34217772 -0.072687946 0.2047137 0.15869437 -0.15269443 -0.4157288 0.8271464 0.06409628
-0.38029137 -0.19733712 -0.090920866 -0.16351014 -0.16438442 -0.108319655 0.48492962 0.31053424
-0.6458722 -0.22765404 -0.05280913 0.15972419 -0.3238892 -0.5039333 0.42587757 0.013270077
0.29561743 0.061685763 -0.27187166 -0.05420223 0.009535258 -0.09769487 0.2449389 0.31745246
-0.19791566 0.07949155 0.22833489 0.16941887 -0.37504435 -0.024577606 0.47390446 0.32982036
-0.32640216 0.048629705 0.09174644 0.29016256 -0.27543595 0.15268297 0.21923575 0.044509657
0.08561907 -0.3085102 -0.20161879 0.088683344 -0.021847324 0.31683224 0.6970727 -0.031090733
0.19464828 0.11107128 0.24152932 0.19896343 -0.1903571 -0.26961744 0.16720617 -0.09436425
0.013293685 0.1769363 -0.083018124 -0.18486716 -0.015368185 0.11614339 0.0036778 0.011132578
-0.12904736 0.15060245 0.3280132 -0.08541069 -0.15591815 0.55129594 0.64320624 -0.050408095
0.44036245 0.08157178 -0.46836844 -0.0033243718 -0.05175306 0.11915399 0.14930706 -0.31996503
0.22480606 -0.18288733 -0.055842917 0.10707387 -0.029221404 -0.10932811 0.47568277 0.006056032
-0.30591395 0.10406546 -0.23784077 -0.05370114 -0.25050285 -0.04258021 -0.18015033 -0.086514354
-0.19095442 0.14761427 -0.19820496 0.029919438 -0.30382815 -0.06348958 -0.08247966 0.19853434
0.013573277 -0.042653687 0.18952571 0.10604729 -0.029160585 -0.19522057 -0.16688275 0.11513322
0.0076773735 -0.03335273 0.1045331 0.11400668 0.015363275 -0.062182967 -0.022318155 0.24056603
0.3734296 0.16713831 0.24747029 0.4252186 -0.15574726 -0.010192612 0.19446588 0.28842872
-0.040048297 0.13589653 0.13586977 0.13581981 -0.2373048 -0.04914294 -0.39509723 0.11127611
-0.24032082 -0.041865293 0.10058265 -0.021460405 -0.040384114 0.18121876 0.19802962 -0.13701576
0.08946266 -0.030278273 -0.17380014 -0.110798724 -0.025725905 0.22139524 0.016531622 -0.088372976
-0.19314153 0.023380496 -0.041811142 -0.1972522 0.084031105 -0.1359222 -0.40801767 0.13835457
0.15611811 0.24758713 0.5510393 0.30856916 -0.045423165 0.6869835 0.5684245 0.6721118
0.42334923 0.10058731 0.082640275 0.029528273 -0.08678049 0.4115546 0.51873153 0.088048235
0.014933709 0.09539171 -0.15153706 0.022060188 -0.26310927 0.4527421 -0.024086775 0.058807276
0.087538786 0.37597808 0.17622265 0.23055829 -0.5129682 0.39547384 -0.11697597 0.24831511
-0.020886697 -0.15782478 -0.36661795 0.15399884 -0.0583528 -0.20451649 -0.12173499 -0.075040326
00000000: 3ee4 ba3e eb37 2f3d 5dd8 a53e 3234 e73d
00000010: e600 db3e 507b 0d3d 4087 373e f255 203b
00000020: c0e4 073f 74a9 893d 9045 583e b5f1 7cbe
00000030: ef1d ba3e 6f16 38bd 21a0 89be a6be 9ebd
00000040: 1763 d63d 2859 25be 0e7e b73c 29fe e2bd
00000050: 4133 263f d0a0 03bf 30dc 153e 7858 57be
00000060: 4fe9 313d 0330 033e a000 5abe 8442 8dbc
00000070: 9207 f63d 3a33 9fbd 3a70 25bf c88d 74be
00000080: ceed ab3d e570 453c 09e5 86be d6c2 a4be
00000090: 26fd 813d d965 a2bc 8b2e a4bf 3720 32be
000000a0: 8f06 463e 084b 96be e5e4 27be be3c 753d
000000b0: 3b85 9c3e ad73 0bbf 5c00 1fbf 1d0c 03bf
000000c0: eb31 afbe 6bdd 94bd 78a0 513e c780 223e
000000d0: ee5b 1cbe 68da d4be debf 533f e944 833d
000000e0: 8db5 c2be be12 4abe b834 babd 346f 27be
000000f0: 6454 28be b2d6 ddbd b248 f83e 58fe 9e3e
00000100: e157 25bf 241e 69be 634e 58bd bd8e 233e
00000110: ced4 a5be c601 01bf a00c da3e bd6a 593c
00000120: 2b5b 973e 36aa 7c3d c332 8bbe 2803 5ebd
00000130: c539 1c3c 3f14 c8bd 43d1 7a3e 2189 a23e
00000140: 67aa 4abe 77cc a23d 9fd0 693e 247c 2d3e
00000150: d005 c0be fa56 c9bc 9ba3 f23e 37de a83e
00000160: 2f1e a7be f12f 473d 8fe5 bb3d 3090 943e
00000170: f105 8dbe ed58 1c3e 567f 603e c24f 363d
00000180: 0d59 af3d 0df5 9dbe 2875 4ebe 9d9f b53d
00000190: 29f9 b2bc d637 a23e 5b73 323f feb1 febc
000001a0: e151 473e 5779 e33d 7653 773e 12bd 4b3e
000001b0: f9ec 42be 4c0b 8abe 1838 2b3e 0b42 c1bd
000001c0: c2cd 593c ca2e 353e 6805 aabd d14d 3dbe
000001d0: d7ca 7bbc 96dc ed3d 3f07 713b 6b65 363c
000001e0: fe24 04be 8737 1a3e 59f1 a73e cdeb aebd
000001f0: 02a9 1fbe bb21 0d3f 2aa9 243f b878 4ebd
00000200: 3077 e13e 1b0f a73d fdcd efbe b4dd 59bb
00000210: 04fb 53bd 0207 f43d f3e3 183e 75d2 a3be
00000220: 8f33 663e d146 3bbe 8bbb 64bd 8c49 db3d
00000230: ba61 efbc 6be7 dfbd b18c f33e ae71 c63b
00000240: c1a0 9cbe 4620 d53d 888c 73be baf5 5bbd
00000250: e941 80be 9668 2ebd 5479 38be 702e b1bd
00000260: 8e89 43be 3228 173e 3ef6 4abe 9c19 f53c
00000270: 5d8f 9bbe d306 82bd 19eb a8bd 964c 4b3e
00000280: 7362 5e3c a2b5 2ebd 0713 423e 522f d93d
00000290: 2ee2 eebc e7e7 47be 50e3 2abe f7ca eb3d
000002a0: 7a92 fb3b df9c 08bd 7315 d63d 567c e93d
000002b0: 3fb6 7b3c 91b3 7ebd 90d4 b6bc f156 763e
000002c0: 2a32 bf3e 4e26 2b3e da68 7d3e 41b6 d93e
000002d0: 367c 1fbe eafe 26bc 1022 473e eeac 933e
000002e0: af09 24bd 7628 0b3e 7221 0b3e 5914 0b3e
000002f0: 0800 73be 1c4a 49bd 2f4a cabe bbe4 e33d
00000300: a916 76be f17a 2bbd 47fe cd3d bbcd afbc
00000310: d069 25bd 6991 393e 47c8 4a3e dc4d 0cbe
00000320: 3338 b73d 240a f8bc aaf8 31be 71ea e2bd
00000330: 22bf d2bc 6fb5 623e 536d 873c e4fc b4bd
00000340: e5c6 45be 7488 bf3c 2942 2bbd 7bfc 49be
00000350: 8018 ac3d 302f 0bbe b1e7 d0be d2ac 0d3e
00000360: 6ddd 1f3e 7b87 7d3e e910 0d3f c7fc 9d3e
00000370: a40d 3abd 27de 2f3f 4584 113f 850f 2c3f
00000380: 3bc1 d83e b800 ce3d 4e3f a93d 47e5 f13c
00000390: f8b9 b1bd 49b7 d23e 97cb 043f a252 b43d
000003a0: 84ac 743c bb5c c33d 882c 1bbe 91b7 b43c
000003b0: 42b6 86be d0cd e73e a151 c5bc e6df 703d
000003c0: 8947 b33d 3380 c03e b673 343e 7917 6c3e
000003d0: e251 03bf 8c7b ca3e 1991 efbd 5146 7e3e
000003e0: 941a abbc d29c 21be 59b5 bbbe dfb1 1d3e
000003f0: 5803 6fbd c56c 51be 3250 f9bd beae 99bd
