scripts/silver_ml/silver.tflite (tflite, 82580 bytes, 4 tensors)

dense_1/bias f4 [2]
00000000: 3cd0 f03e 3cd0 f0be
0.4703387 -0.4703387

dense/bias f4 [16]
00000000: 441f e53e f0cd b2be 0348 e43e 4555 483f
00000010: 8488 fcbb a5d1 ff3e 11ff fb3e e420 c4bb
00000020: 2a6a 023f bf31 b8be 59a2 c1be 6f86 bcbe
00000030: df80 213f 4288 053f 7435 19bc 71a6 c3be
0.44750416 -0.34922743 0.4458619 0.7825511 -0.0077067036 0.49964634 0.49218038 -0.005985366
0.50943244 -0.35975453 -0.37819174 -0.36821315 0.63087267 0.5216104 -0.009351123 -0.38212922

sequential/dense/MatMul f4 [16, 1260]
00000000: ad0d 583e e60c 7c3e 0cf0 293e 8651 423e
00000010: 1419 883e 0cac fb3d d5fe 153e 9267 5c3e
00000020: 832d 363e 7ac6 d53d 12f2 233e 7cae ef3d
00000030: 7a53 07bd e3b2 bf3d b11c d53d d2a9 52bd
00000040: 7c4b 723d 217f d53c 3fc8 2c3d 50b3 cd3d
00000050: 8794 9a3c 5546 f63b 0541 0b3d df6a 653d
00000060: 66cf 8f3c 276f 9a3d 86ca 94bc a96f 8dbb
00000070: d6ac 223d a692 eebc 0064 0bbc 81a5 ac3d
00000080: 6239 a33b 21ad a23d 3863 07bc ab08 78bd
00000090: d53c 50bc 07a5 eabc 9eca 69bd 05fe b53c
000000a0: 05b2 2cbd 1e2f 763c 1438 2a3d 004d dbbc
000000b0: 39c4 0c3d 1b36 093d 58f8 b4bb 9e60 18bd
000000c0: 0ad9 c8bc 8712 6dbb 03ca a2bc b04c 203a
000000d0: cb3c edbd 931c 383d 1630 a63d 69bb e6bd
000000e0: 4bdd b5ba 85d1 51bc 7efe 09be ed3b 93bd
000000f0: 64e2 59bd 068d edbd 3f96 273d 49d2 413b
00000100: 49b4 62bd 8a19 97bc c7d4 4b3d f151 dfbd
00000110: fd6a 4f3d 0a7a 8a3d 9ac2 85bd ef28 0c3d
00000120: b879 9dbc 3174 babd 2c26 b5bc da21 003d
00000130: f298 a2bd 4e71 123c c551 a33d e3cb c7bd
00000140: 4511 0d3d c58b ff3c 98f6 28bd fd1f 033d
00000150: 674f ec3c 2406 163d 9118 a73c 0f6f 8d3d
00000160: 7950 0dbd a48f cc3d 1eb8 0e3d 55fa 59bb
00000170: c957 e03c 6285 2ebd 3c85 8b3b 12d9 70bc
00000180: bbd6 653d f912 78bd 6a47 39bd 98b0 3f3d
00000190: 68be 1fbc 5feb 943d a1b1 85bd 6623 073d
000001a0: 4ef1 dfbb 8945 7abd ff7c 8dbc 711e 0c3d
000001b0: 0972 97bd e726 37bd 970f 963d b268 0c3c
000001c0: cbf5 82bb 80cd 853c 2b60 9dbd 5bdc 2a3b
000001d0: 8323 20bd 40bd a83c afbc 0e3d c9e4 32bd
000001e0: cd99 86bb ea8c 97bd 941a 9cbc 57be 00be
000001f0: 8770 97bd 5fec 4cbd 74ec 7c3d 5458 503e
00000200: 6d26 313e c2e6 de3d 0a4a ed3d 25eb 223e
00000210: 3fcf c23d a20b 803d d2ec 553d da43 253d
00000220: 9967 fe3d d9fd b03d 7631 363d 032e 0e3d
00000230: 5e49 af3d 5324 cabc e9d6 333d 74c4 333d
00000240: 281f 1ebd 0752 85bd 483b d23c 1e89 c03c
00000250: 9a9f 81bd 662f 0b3d 5714 5dbd c23c 813d
00000260: 2a41 16bc 879d e5bc 3e09 a23a a6db 6cbd
00000270: dbf1 4a3d a692 2c3d 0385 86bd 1e06 cb3c
00000280: 0d84 05bd 31af 5cbc 5bb6 db3c c4c4 4dbc
00000290: a638 d63c 7fda 3cbd e1a3 71bd 2123 71bd
000002a0: 221d cf3c 37ea 78bd a941 30bd a010 96bd
000002b0: 5650 01be 444a ca3c 0249 98bd 2a58 87bd
000002c0: 3ce1 46bd 1103 b6bc 4851 05be 7e8f 5f3c
000002d0: d083 1e3b e620 f7bd 856f 0bbd 9f2f 77bd
000002e0: 8a09 94bd 8555 c9bc 7f80 c33c f5a9 31bd
000002f0: e30f 043d d924 0d3d 5bc6 2bbe 7bd5 b4bc
00000300: 75ff 1e3d c559 febd 0ef4 df3c 39ed 4cbd
00000310: 5328 e5bd c823 a53c 6f31 9bbd 4450 38bd
00000320: 0b63 a2bd ea1b 6abd 19d8 bbbc dfba 83bd
00000330: 8478 59bd 775b 1abd efe0 153c 72c4 10bd
00000340: 522c 2ebd c247 e33c 4c33 9d3d 2a0c 38bd
00000350: 8863 77bc b332 253b 5fa1 abbd ccbc 9f3c
00000360: 41dd 27bd 7aaa 81bb dcdf 113d 01db 543d
00000370: b567 71bc 9ec6 553b 1581 833d 5694 5c3a
00000380: ae35 40bc e1e7 6b3d f24d 3abc 4742 8a3d
00000390: 8e05 883b 209c c8bd 14f1 6b3d e813 3cbb
000003a0: 07bd 25bd f7b6 e5bb 7e86 77bd 9f55 3f3d
000003b0: 3d05 a73d 3707 52bd b8db 393c c038 703b
000003c0: a70d f9bd a123 433d fb66 e63c 5d2d be3a
000003d0: a370 e93d 225b 463d 2ad8 d2bd f527 843d
000003e0: 252e 8c3d baf4 f0bd 7cab bd3c e1a8 be3c
000003f0: 78c0 c03d a090 293e 9110 e13d 978e 953d
0.21098967 0.24614295 0.16595477 0.18976411 0.26581633 0.12288675 0.14647992 0.21523884
0.17790799 0.10438247 0.16010311 0.11703202 -0.033038594 0.09360292 0.10405863 -0.051431485
0.05915402 0.026061596 0.042183157 0.10043967 0.018869651 0.0075157085 0.033997554 0.056010123
0.01755495 0.07540732 -0.018162977 -0.0043162894 0.03971561 -0.029122662 -0.008507729 0.08430005
0.004981206 0.07943178 -0.008263402 -0.06055514 -0.012709816 -0.028643144 -0.057077996 0.022215853
-0.04216196 0.015025882 0.041557387 -0.026770115 0.03436682 0.033498865 -0.005522769 -0.037201516
-0.024517555 -0.0036174373 -0.019871717 0.0006114943 -0.11583861 0.044949125 0.081146404 -0.112662144
-0.0013875155 -0.012806301 -0.13475987 -0.07189164 -0.05319442 -0.11599164 0.04091477 0.0029574803
-0.055347715 -0.018444795 0.049763467 -0.10904301 0.05063914 0.06761558 -0.06531258 0.034218725
-0.01922308 -0.09104193 -0.022112928 0.031282283 -0.07939328 0.008938147 0.07974581 -0.09755685
0.034440298 0.031194577 -0.041250795 0.03201293 0.028846456 0.03662695 0.020397456 0.06905948
-0.034500573 0.09988335 0.034843557 -0.0033260782 0.02738561 -0.042607673 0.004257826 -0.014700191
0.056112986 -0.06056497 -0.04523412 0.046799272 -0.009749986 0.07271456 -0.06528021 0.032992743
-0.0068341857 -0.06110147 -0.017271517 0.03420872 -0.07394797 -0.044714835 0.07327192 0.008569883
-0.003996586 0.016333342 -0.07684358 0.0026071284 -0.039096367 0.020598054 0.03484791 -0.043675218
-0.00410769 -0.07399924 -0.019055642 -0.12572609 -0.0739451 -0.05003011 0.061748937 0.20346195
0.17299815 0.10883857 0.115863875 0.15910013 0.09512185 0.06252219 0.052227803 0.04034791
0.124221034 0.086421676 0.044480763 0.03471185 0.085589156 -0.024675524 0.043906126 0.043888524
-0.03860393 -0.06509786 0.025663033 0.023502883 -0.0632927 0.03398075 -0.053974476 0.06310417
-0.00917081 -0.028029216 0.0012362374 -0.05782666 0.049547058 0.042132042 -0.06568339 0.02478319
-0.032596637 -0.013469503 0.026820352 -0.01255912 0.026150059 -0.04610681 -0.058994178 -0.058871392
0.025282446 -0.06077024 -0.04303137 -0.0732739 -0.12628302 0.024693616 -0.074358 -0.06608613
-0.048554644 -0.022218259 -0.13019288 0.013645051 0.0024187453 -0.12066822 -0.0340419 -0.06034815
-0.07228382 -0.024576912 0.023864983 -0.043374974 0.032241713 0.03445897 -0.16774885 -0.022074452
0.03881784 -0.12419466 0.027338054 -0.05003092 -0.11189332 0.020158663 -0.07577788 -0.044998422
-0.07929047 -0.057155527 -0.022930192 -0.06432127 -0.05309345 -0.037684884 0.009147867 -0.035343595
-0.042522736 0.027744178 0.076758 -0.044933476 -0.015099414 0.002520722 -0.083803885 0.019499205
-0.04098249 -0.00395709 0.03561388 0.05196667 -0.014734198 0.0032619606 0.06421105 0.0008414438
-0.011731548 0.057594184 -0.011371123 0.06750923 0.004151053 -0.097954035 0.057602957 -0.0028698388
-0.040463474 -0.0070103365 -0.060430996 0.046712514 0.08155296 -0.05127641 0.011343889 0.003665492
-0.12160807 0.0476414 0.028125277 0.0014509369 0.11398437 0.048426755 -0.10295136 0.06452934
0.06844739 -0.11765428 0.02315306 0.023273887 0.094117105 0.16559076 0.10989488 0.073025875

sequential/dense_1/MatMul f4 [2, 16]
00000000: aa01 193f b48b eebe 918e 943e 8df6 e2bd
00000010: b9f5 c0be 207f cd3e e9d0 073f 82fc 283e
00000020: 9c5f 4b3f 94d9 2ebe d39b ea3d dc77 043e
00000030: be60 91be 9c18 f43e b73b 48be b087 bbbe
00000040: 1414 49bf 7a79 803e 4079 bebe b790 52bf
00000050: 392f dc3e 5f95 a1be e90d afbe 90e2 c23c
00000060: 208a 11be 1a33 9b3e 6a85 903e 11a8 f23e
00000070: 54f0 f8be 8415 333e 9723 fb3e 3673 60bd
0.59768164 -0.4659096 0.2901502 -0.11082182 -0.37687472 0.4013605 0.53053147 0.16502574
0.79442763 -0.17075187 0.11455502 0.12936348 -0.2839412 0.47675025 -0.1955403 -0.3662696
-0.7854626 0.2509268 -0.3720188 -0.8225207 0.43004778 -0.31559274 -0.341903 0.023789674
-0.14212847 0.30312425 0.28226787 0.4739385 -0.48620856 0.17488676 0.4905059 -0.054797374
