scripts/silver_ml/silver.tflite (tflite, 42164 bytes, 4 tensors)

dense_1/bias f4 [2]
0	0x3f341e75	0.70358974
1	0xbf341e78	-0.7035899

dense/bias f4 [8]
0	0xbef0b13e	-0.47010225
1	0x3f805995	1.0027338
2	0xbf0be270	-0.5464239
3	0xbbdcec92	-0.0067420686
4	0x3f84c98a	1.0374005
5	0xbedb491f	-0.42829224
6	0xbc662d9c	-0.01404896
7	0xbcafeffd	-0.02147674

sequential/dense/MatMul f4 [8, 1260]
0	0xbdc3544d	-0.095375635
1	0xbe311db3	-0.17296486
2	0xbe0a9496	-0.13533244
3	0xbe04e186	-0.12976655
4	0xbe0076f5	-0.12545379
5	0xbdc228ee	-0.09480463
6	0xbdb970e0	-0.09054732
7	0xbe40a157	-0.18811546
8	0xbd9a0d95	-0.07522122
9	0xbd1d68eb	-0.038430136
10	0xbe160c36	-0.14653096
11	0xbdf0e0ef	-0.11761653
12	0x3ce148df	0.027500568
13	0xbe48301a	-0.195496
14	0xbc94c648	-0.018160954
15	0x3d9c3590	0.07627404
16	0xbe42af6f	-0.19012235
17	0xbddd73dd	-0.10813115
18	0x3d74a082	0.059723385
19	0xbe06fbdf	-0.13182019
20	0x3c822645	0.015887389
21	0xbb9fe157	-0.0048791575
22	0xbdabca40	-0.083881855
23	0xbdaea308	-0.085271895
24	0x3d1ef617	0.03880891
25	0xbe23eb7a	-0.16007796
26	0xbde24f41	-0.11050273
27	0xbdd3bc90	-0.103387
28	0xbe25e7fe	-0.16201779
29	0xbd5b648d	-0.05356269
30	0xbda6145a	-0.081093505
31	0xbdcbe07c	-0.09954926
32	0x3ca340a7	0.01992829
33	0xbe076701	-0.13222887
34	0xbdfc0c0e	-0.12306987
35	0x3b549892	0.0032439572
36	0xbc9ca964	-0.01912374
37	0xbe0211c9	-0.12702097
38	0x3d85362c	0.06504473
39	0xbdc91d69	-0.09820063
40	0xbc6872d3	-0.0141875325
41	0xbc74f4aa	-0.014950911
42	0xbdec0ebd	-0.115262486
43	0x3dcb938b	0.09940251
44	0xbbe6a87d	-0.0070391283
45	0xbd8adb8e	-0.06780158
46	0x3d75301f	0.059860345
47	0x3d73f6c1	0.059561495
48	0xbe055285	-0.1301976
49	0x3d858879	0.06520171
50	0x3dc8c8e4	0.09803942
51	0xbdbfb6dd	-0.0936105
52	0x3de37472	0.111061946
53	0x3da1f7d5	0.07908598
54	0xbd7bcaf8	-0.061472863
55	0x3daf8c78	0.08571714
56	0x3d95699c	0.07295534
57	0xbc2ad1cd	-0.010425997
58	0x3d5cea70	0.053934515
59	0xbce41961	-0.027844133
60	0xbb9d6089	-0.0048027677
61	0x3d1ba097	0.037994947
62	0xbc86121c	-0.016366057
63	0xbcbd8bdc	-0.02313798
64	0x3c8d5b51	0.017255457
65	0x3d7d4623	0.061834466
66	0x3b28cbec	0.0025756313
67	0x3d7bf1cf	0.061509904
68	0x3d7d8218	0.061891645
69	0xbd867810	-0.06565869
70	0x3dfebce9	0.124383755
71	0x3d3636f5	0.044486005
72	0xbd4bf740	-0.049796343
73	0x3d6b5f03	0.057463657
74	0xbd244714	-0.040106848
75	0xbdf5996c	-0.119921535
76	0x3d2cfbd6	0.042232357
77	0x3d680fe5	0.056655783
78	0xbcec5c06	-0.028852474
79	0x3d07c343	0.0331452
80	0x3d91b09a	0.07113762
81	0xbe02ad8e	-0.12761518
82	0xbcec8caa	-0.028875668
83	0x3c621b72	0.013800489
84	0xbde54cfb	-0.111963235
85	0xbc14c38e	-0.009079827
86	0x3a842de6	0.001008448
87	0xbe051cbf	-0.12999247
88	0xbe020d93	-0.1270049
89	0xbd869f0a	-0.06573303
90	0xbcd542a9	-0.026032763
91	0xbcc7c0d3	-0.024383938
92	0x3c42f69f	0.011899619
93	0xbcb37a05	-0.02190877
94	0xbd9a657e	-0.07538889
95	0xbd228596	-0.03967818
96	0xbd82cc39	-0.06386609
97	0xbe164491	-0.14674594
98	0xbd0685c9	-0.03284243
99	0xbd57f015	-0.052719194
100	0xbd879e15	-0.06621949
101	0x3b16467a	0.002293019
102	0x3d57efb9	0.05271885
103	0xbdcfe92e	-0.10151897
104	0xbd857fe6	-0.06518535
105	0xbcd96a11	-0.026539834
106	0xbe3159c4	-0.17319399
107	0xbd2968f3	-0.041359853
108	0x3d04aa51	0.03238899
109	0xbdf7704f	-0.12081968
110	0xbd50716d	-0.05088942
111	0x3b11348b	0.0022156562
112	0xbdf8b330	-0.12143552
113	0xbdcb7e85	-0.09936241
114	0x3caf30ff	0.021385668
115	0xbdb3a3f6	-0.087715074
116	0xbd2a150f	-0.04152399
117	0x3ce56c0a	0.028005619
118	0xbe2dd4d5	-0.1697572
119	0xbdcb31c3	-0.09921601
120	0xbcc2e868	-0.02379246
121	0xbe089937	-0.13339697
122	0xbd1c131b	-0.038104158
123	0xbd12c45e	-0.0358318
124	0xbdbdc822	-0.09266688
125	0xbdff5938	-0.12468189
126	0xbdd6aba8	-0.104819596
127	0xbde49c37	-0.11162608
128	0xbd8816bf	-0.066449635
129	0x3d4dc939	0.05024073
130	0xbdbb87e9	-0.09156782
131	0xbdab7958	-0.08372754
132	0xba8359dd	-0.0010021288
133	0xbd1e4a8f	-0.038645323
134	0x3d36b6e3	0.044608008
135	0x3db7a2c8	0.08966595
136	0xbd60fcda	-0.054928638
137	0x3cbd7df0	0.02313134
138	0x3d9e6958	0.077349365
139	0xbd119a5a	-0.03554759
140	0xbd706962	-0.05869425
141	0x3dfdd15d	0.123934485
142	0xbd6367e2	-0.055518992
143	0x3dae86d9	0.08521814
144	0x3e24b1b4	0.16083413
145	0xbd35008a	-0.044189967
146	0xbd3ace02	-0.04560662
147	0x3da00349	0.078131266
148	0xbe11e5e3	-0.14247851
149	0xbd96ba11	-0.07359708
150	0x3d51f3c2	0.051257856
151	0xbde05218	-0.10953158
152	0x3a4c216b	0.0007786962
153	0x3d775d91	0.060391966
154	0xbdc871c2	-0.097873226
155	0x3a8519dc	0.0010154801
156	0x3d1a3a96	0.03765353
157	0xbddecad0	-0.10878527
158	0xbd54a580	-0.051915646
159	0xbbda1b87	-0.0066561135
160	0xbcf1f08b	-0.029533645
161	0xbb88a578	-0.004170116
162	0xbd64f336	-0.055896007
163	0xbd836354	-0.0641543
164	0xbb925f7b	-0.0044669486
165	0xbdab60c1	-0.08368064
166	0x3b0523f2	0.0020315615
167	0x3d765dc4	0.060148016
168	0xbdcf81e9	-0.101322
169	0x3cbaeac9	0.022817032
170	0x3bebd03a	0.0071964534
171	0x3c2e581d	0.010641125
172	0x3de77e41	0.11303378
173	0x3c16b191	0.009197609
174	0xbd31cad2	-0.043406315
175	0x3dc100c5	0.09423975
176	0x3b32843f	0.002723947
177	0xbc8294fd	-0.015940184
178	0x3de0a058	0.10968083
179	0x3d0c5f6e	0.034270696
180	0x3cc87260	0.0244686
181	0x3df3ea3f	0.11909913
182	0x3d147c92	0.036251612
183	0xbd2251c6	-0.039628766
184	0x3d8b29af	0.0679506
185	0x3b8a6e9c	0.0042246114
186	0xbd16e810	-0.036842406
187	0x3dbf5294	0.093419224
188	0x3d8d9e07	0.06914907
189	0xbcafcfd8	-0.021461412
190	0x3e1852a6	0.14875278
191	0x3d17bdc9	0.037046228
192	0xbd46df7a	-0.048552968
193	0x3dec9579	0.11551947
194	0x3d06d1da	0.032914974
195	0x3d650b1d	0.0559188
196	0x3e1d4e47	0.15361892
197	0x3cd8fb08	0.026486889
198	0x3d8055de	0.06266378
199	0x3dab15fc	0.083538026
200	0x3cbee8ba	0.023304332
201	0x3c7a1ce0	0.015265673
202	0x3e3e4c0f	0.18583702
203	0x3dc36ad3	0.095418595
204	0xbd81e2f4	-0.06342116
205	0x3d4c8dcc	0.049939916
206	0x3ccc3597	0.024927897
207	0xbd5da0fd	-0.05410861
208	0x3df1d2dd	0.11807797
209	0xbb548321	-0.0032426792
210	0xbdf302f5	-0.118657984
211	0x3d005336	0.031329356
212	0x3ceddcd6	0.029035967
213	0xbdaea2f8	-0.085271776
214	0xbd91c2b4	-0.07117215
215	0x3d5063ba	0.050876357
216	0xbdd8110f	-0.10550129
217	0xbdd51822	-0.104049936
218	0x3d4ac7a8	0.049506813
219	0xbd0efe5b	-0.03491054
220	0xbdeac1cd	-0.11462746
221	0x3d72f4f0	0.05931562
222	0x3d56c70c	0.05243592
223	0xbd04414c	-0.032288834
224	0x3cb0f807	0.021602644
225	0x3de201cd	0.110355
226	0xbdad427d	-0.08459947
227	0x3d6e710c	0.05821328
228	0x3cbb048f	0.022829322
229	0x3d9333b3	0.07187595
230	0x3c413c08	0.011794098
231	0x3dd5bfac	0.10436949
232	0xbb026c28	-0.0019900892
233	0x3d259547	0.040425565
234	0x3cc1f2c5	0.023675332
235	0xbd5f6aad	-0.054545093
236	0xbd6a97bf	-0.057273623
237	0x3dca8359	0.09888334
238	0xbde70db2	-0.11281909
239	0xbdbd457d	-0.092417695
240	0x3e079981	0.13242151
241	0xbe08cdfa	-0.13359824
242	0xbd95b969	-0.07310755
243	0x3dc365e4	0.095409185
244	0xbd6b5f21	-0.05746377
245	0xbde990ca	-0.114045694
246	0x3dc3668a	0.09541042
247	0xbd223d41	-0.039609198
248	0xbdcdab3c	-0.10042426
249	0x3c7df26e	0.015499694
250	0xbdb06395	-0.08612744
251	0xbcc6e5b8	-0.02427946
252	0xbd5aa150	-0.053376496
253	0xbdca33bf	-0.09873151
254	0xbda650dd	-0.08120892
255	0x3d58d02f	0.052932914

sequential/dense_1/MatMul f4 [2, 8]
0	0xbf47443a	-0.7783848
1	0x3d5e7c1a	0.05431757
2	0xbf522a05	-0.82095367
3	0xbf330e95	-0.69944125
4	0xbe7f1f19	-0.24914207
5	0xbf3d46fa	-0.73936427
6	0xbed74279	-0.42042902
7	0xbf1b60b0	-0.6069441
8	0x3d00f576	0.03148409
9	0xbe93d419	-0.28872755
10	0xbe3f9633	-0.1870964
11	0x3ecb1ce0	0.39670467
12	0xbf12a97d	-0.5728987
13	0x3f030367	0.51177067
14	0xbe725e19	-0.23668708
15	0x3da7285f	0.08161997
