scripts/silver_ml/silver.tflite (tflite, 42164 bytes, 4 tensors)

dense_1/bias f4 [2]
0.5919427 -0.5919432
00000000: 8f89 173f 9789 17bf

dense/bias f4 [8]
-0.44109207 -0.006002879 -0.027223192 0.7362569 0.67700064 -0.36925778 0.812523 -0.0055537624
00000000: d2d6 e1be ccb3 c4bb 2c03 dfbc 557b 3c3f
00000010: ea4f 2d3f 5b0f bdbe 8201 503f 56fc b5bb

sequential/dense/MatMul f4 [8, 1260]
-0.1530017 -0.15891519 -0.17988329 -0.09220941 -0.067065716 -0.07318845 -0.04239221 -0.053028807
-0.14417921 0.05206529 -0.13019735 -0.0454384 -0.025813434 -0.12822199 -0.08990521 0.09751038
-0.09836083 -0.09850347 0.04014775 -0.027034756 0.009393258 0.01077557 -0.06362721 -0.03536758
0.03830979 -0.12142917 -0.110832445 -0.082896926 -0.11188456 -0.10023176 -0.08776143 -0.053334642
-0.028268578 -0.10704718 -0.1163741 0.04599446 -0.054260407 -0.116399184 0.029201943 -0.06876073
-0.023648301 0.05047897 -0.04160683 0.05673631 0.06489209 -0.07505651 0.095065095 0.044324357
-0.07504682 -0.026018584 0.04060635 -0.0046169683 -0.01961585 0.080684304 -0.06493437 -0.0065035587
0.031494386 -0.09883909 0.02415027 -0.035351466 -0.010753882 0.055498637 0.011618175 -0.0038035861
0.059101712 0.012936895 -0.08869522 0.053138684 -0.02715559 -0.041192487 -0.0013286939 0.009552859
-0.038149834 0.08734383 0.0034740977 0.015482719 0.036786225 0.06570775 -0.029899675 0.006092572
0.023002664 -0.16471855 0.027445983 0.021800412 -0.077941194 -0.07210659 -0.03527431 -0.14037983
-0.12698138 0.04593181 -0.05128817 -0.018821599 -0.04373223 -0.037459143 -0.027109453 0.050097387
0.055412848 -0.08863603 0.07009357 -0.040298026 -0.08543371 -0.041785866 0.016225599 -0.064637676
-0.03276818 0.009783686 -0.06777063 -0.023122398 0.031778786 -0.15312904 -0.06993289 0.022566123
-0.1632131 -0.047816698 0.09156566 -0.088585325 -0.017053766 0.07524608 -0.04753436 -0.009029979
0.029421728 -0.12016919 -0.015448623 -0.075219125 -0.016735049 -0.025835136 -0.09004859 -0.05814605
-0.03188968 0.01637074 0.016179807 0.058935568 0.012118842 -0.12417246 0.0017458935 0.059290905
-0.047059935 0.015192563 0.13096628 -0.038687807 0.019818915 0.1515354 -0.114050284 0.06493101
0.13325442 -0.058770835 0.015397524 0.07817292 -0.13450643 -0.014387343 -0.0049444744 -0.116898924
-0.044075526 0.067063265 -0.080554575 0.019034648 -0.017230181 -0.15664007 0.032987066 -0.059362292
-0.12438424 0.051737774 -0.054383233 -0.05181581 0.074921444 -0.059300903 0.04486671 0.099124074
0.021408796 0.107484356 0.09516031 -0.09092707 0.08868162 0.07701303 -0.03364216 0.098683864
0.043627117 -0.017279299 0.07155674 -0.004770196 0.064980045 0.15408137 0.08308825 0.04316857
0.1139294 0.049657587 -0.06362772 0.12929994 0.050088532 0.06697661 0.08137661 0.0037598955
0.0075672315 0.06858523 0.016597606 -0.04440684 0.17029078 0.02603624 0.045095433 0.1404295
-0.0021098927 0.052612714 0.057946637 0.07475964 -0.06309421 0.019421877 -0.01251562 -0.03805167
0.04078234 0.04088023 -0.0701418 0.06726095 0.07304327 -0.037597623 -0.08281071 0.07121778
-0.08772973 -0.0029009783 -0.038339354 0.04276283 0.011390113 -0.03806379 0.036849115 0.029008433
0.0017570993 0.095191285 -0.0018438137 0.05093192 0.08472587 -0.007256069 0.012872609 0.15887819
-0.0655613 -0.04284236 0.08717728 -0.07947395 0.019986905 0.04686348 -0.15265325 -0.08167866
0.130189 -0.11548592 -0.048458003 0.10564259 -0.13444874 -0.062457547 -0.0062189056 0.009437786
-0.052590307 0.009401798 -0.086683504 -0.0054346323 -0.037716582 -0.10742821 -0.083423615 0.12509179
00000000: 7aac 1cbe aaba 22be 5333 38be 4ad8 bcbd
00000010: c059 89bd d3e3 95bd 74a3 2dbd bc34 59bd
00000020: b7a3 13be 6a42 553d 7452 05be 9e1d 3abd
00000030: b276 d3bc a04c 03be 3920 b8bd 86b3 c73d
00000040: 6771 c9bd 30bc c9bd f871 243d fe77 ddbc
00000050: 2ee6 193c 048c 303c fc4e 82bd 98dd 10bd
00000060: baea 1c3d dbaf f8bd 1ffc e2bd ddc5 a9bd
00000070: bb23 e5bd 4f46 cdbd 44bc b3bd 6d75 5abd
00000080: 8193 e7bc 8d3b dbbd 8b55 eebd b064 3c3d
00000090: 2940 5ebd b262 eebd ea38 ef3c 6dd2 8cbd
000000a0: 15ba c1bc 09c3 4e3d ec6b 2abd 5564 683d
000000b0: 25e6 843d 3ab7 99bd 7db1 c23d 758d 353d
000000c0: 26b2 99bd ed24 d5bc d852 263d f049 97bb
000000d0: 6bb1 a0bc d03d a53d 50fc 84bd ce1b d5bb
000000e0: 4200 013d 266c cabd c9d6 c53c b3cc 10bd
000000f0: 0d31 30bc 8a52 633d 285a 3e3c 9645 79bb
00000100: a314 723d 45f5 533c d7a5 b5bd f3a7 593d
00000110: 6675 debc 74b9 28bd 9227 aeba 9883 1c3c
00000120: 0043 1cbd 52e1 b23d b0ad 633b 3bab 7d3c
00000130: 27ad 163d c991 863d 2af0 f4bc 33a4 c73b
00000140: 1570 bc3c fbab 28be 66d6 e03c c796 b23c
00000150: a29f 9fbd 9fac 93bd cb7b 10bd bbbf 0fbe
00000160: 6807 02be fe22 3c3d 8b13 52bd c12f 9abc
00000170: 9120 33bd c26e 19bd a514 debc eb32 4d3d
00000180: 95f8 623d cf86 b5bd 388d 8f3d 8b0f 25bd
00000190: def7 aebd a827 2bbd 8ceb 843c c260 84bd
000001a0: ed37 06bd c14b 203c 54cb 8abd 2f6b bdbc
000001b0: 792a 023d dccd 1cbe fa38 8fbd 97dc b83c
000001c0: 5621 27be 71db 43bd c786 bb3d 396c b5bd
000001d0: 57b4 8bbc 9e1a 9a3d 64b3 42bd 7af2 13bc
000001e0: d605 f13c 441b f6bd 391c 7dbc 7c0c 9abd
000001f0: f117 89bc 35a4 d3bc 656b b8bd 8d2a 6ebd
00000200: c19e 02bd ee1b 863c 848b 843c 6c66 713d
00000210: 1c8e 463c 214e febd 77d6 e43a 05db 723d
00000220: ebc1 40bd 3aea 783c 061c 063e 1b77 1ebd
00000230: 475b a23c 192c 1b3e 3293 e9bd 8dfa 843d
00000240: d973 083e b0b9 70bd e645 7c3c 2019 a03d
00000250: 0ebc 09be e4b8 6bbc 4205 a2bb b468 efbd
00000260: 8a88 34bd 7758 893d ccf9 a4bd 8dee 9b3c
00000270: 4f26 8dbc 4166 20be 721d 073d e025 73bd
00000280: 2abd febd fdea 533d f4c0 5ebd d13c 54bd
00000290: 6a70 993d 81e5 72bd 28c6 373d 9001 cb3d
000002a0: 8061 af3c c220 dc3d 69e3 c23d f937 babd
000002b0: b69e b53d 02b9 9d3d 5dcc 09bd c41a ca3d
000002c0: 59b2 323d 518d 8dbc 578c 923d 4e4f 9cbb
000002d0: 4214 853d 82c7 1d3e 2c2a aa3d 87d1 303d
000002e0: d153 e93d c165 4b3d 404f 82bd 3467 043e
000002f0: a229 4d3d 082b 893d c8a8 a63d 9468 763b
00000300: 8af6 f73b 6a76 8c3d b4f7 873c f2e3 35bd
00000310: b560 2e3e f449 d53c fdb5 383d c0cc 0f3e
00000320: 2046 0abb 6e80 573d 7459 6d3d 951b 993d
00000330: 8a37 81bd a11a 9f3c 510e 4dbc 11dc 1bbd
00000340: 620b 273d 0772 273d 81a6 8fbd 1cc0 893d
00000350: b697 953d f7ff 19bd a998 a9bd a1da 913d
00000360: a5ab b3bd 571e 3ebb ba09 1dbd 1428 2f3d
00000370: 999d 3a3c c7e8 1bbd 19ef 163d 18a3 ed3c
00000380: 784e e63a a6f3 c23d 1fac f1ba fd9d 503d
00000390: c284 ad3d 52c4 edbb a3e7 523c f7b0 223e
000003a0: 0145 86bd 787b 2fbd 008a b23d 3dc3 a2bd
000003b0: 94bb a33c ecf3 3f3d 2251 1cbe 2447 a7bd
000003c0: 4450 053e e283 ecbd e67b 46bd 245b d83d
000003d0: eeac 09be 7cd3 7fbd f6c7 cbbb f2a0 1a3c
000003e0: ef68 57bd 000a 1a3c 1f87 b1bd 0015 b2bb
000003f0: b47c 1abd 5203 dcbd 00da aabd 1018 003e

sequential/dense_1/MatMul f4 [2, 8]
-0.8593255 0.12790991 -0.48412243 0.69077647 0.5470394 -0.74249595 0.71089405 0.27842617
-0.2490594 0.5937764 -0.37244555 -0.0953859 -0.3675887 0.86308205 0.10689687 0.4142164
00000000: c2fc 5bbf d1fa 023e e5de f7be bad6 303f
00000010: c60a 0c3f 3714 3ebf 27fd 353f e08d 8e3e
00000020: 6d09 7fbe bb01 183f 2fb1 bebe af59 c3bd
00000030: 9634 bcbe f2f2 5c3f bfec da3d 2c14 d43e
