scripts/silver_ml/silver.tflite (tflite, 42164 bytes, 4 tensors)

dense_1/bias f4 [2]
000000 4a 8c f6 bf 4c 8c f6 3f
       -1.9261563 1.9261565

dense/bias f4 [8]
000000 9b ec 7f 3f c2 07 5a 3f 6b 87 06 bc a5 a6 c4 bb
       0.99970406 0.8516809 -0.008210997 -0.006001311
000010 46 b6 89 3f 6a c5 6e 3f b0 a5 35 3f 50 34 7c 3f
       1.075875 0.9326998 0.70955944 0.9851732

sequential/dense/MatMul f4 [8, 1260]
000000 37 af 6c 3e bd 3c 60 3e 98 05 75 3e 75 2b 2d 3e
       0.23113714 0.2189817 0.23927915 0.16911109
000010 c9 7c 73 3e 8a a2 36 3e ce cf 05 3e 9a 68 8f 3e
       0.2377807 0.17835441 0.13067552 0.28009492
000020 e4 3b 36 3e 8a cb a4 3d 87 70 5e 3e 92 f3 3b 3e
       0.17796284 0.080466345 0.21722613 0.18354633
000030 25 41 3b bc 33 42 29 3e bc 51 79 3d a1 fc 52 3d
       -0.011429106 0.16529159 0.060868964 0.051510457
000040 60 8a 14 3e 34 13 90 3d 65 52 03 bd 60 ce 9b 3d
       0.14505911 0.07034913 -0.032061 0.07607722
000050 08 87 d3 3d 9f 94 80 3d f5 0b c8 3d 21 bb b0 3d
       0.103284895 0.06278347 0.097679056 0.08629442
000060 3b be 88 3d 07 99 27 3e 90 c2 a1 3c e3 56 9d bc
       0.066769086 0.16366969 0.019746095 -0.01920647
000070 f1 c2 4b 3e 74 c1 21 3d b1 83 af 3d 4e 3a ca 3d
       0.19898583 0.039491132 0.0857004 0.09874402
000080 c2 ad 8b bc d9 29 ed 3d 46 7e e7 bc 22 c5 34 bd
       -0.017050628 0.115802474 -0.028258454 -0.044133313
000090 27 e8 fc 3a a5 32 99 bd 12 4d 9a bd 9d 54 3f bd
       0.0019295261 -0.07480363 -0.07534231 -0.046711553
0000a0 1f 9d cf bc 38 f0 d7 bd 6e b9 87 bc 14 02 07 be
       -0.025343476 -0.10543865 -0.016567912 -0.13184386
0000b0 0e 1b 32 be 0d 1e 24 bd 4a db 2d be 8d 6b b2 bd
       -0.17393133 -0.04006772 -0.16978183 -0.0871192
0000c0 43 47 9a bd a9 2f 26 be a4 f2 26 be 5a ec 79 bd
       -0.07533123 -0.16229118 -0.16303498 -0.061016418
0000d0 1c 51 f0 bd bf 09 e7 bd 6d 6e 54 3c 34 a8 1b be
       -0.117342204 -0.11281156 0.012965781 -0.15200883
0000e0 9b 38 c6 bd 8b d7 07 3d 77 e8 33 be a0 4d 17 be
       -0.096787654 0.033164542 -0.17569147 -0.14775705
0000f0 de 74 92 bd 8b f0 e3 bd 6f f5 e6 bd 49 bf ef bc
       -0.07151197 -0.11129864 -0.112772815 -0.029266017
000100 18 7c a7 bd e1 17 b0 bd 40 dc 2f 3d ed d0 08 be
       -0.08177966 -0.085983045 0.042934656 -0.13360949
000110 e0 91 94 bd 5d 62 f2 bc 33 6f 88 bd 44 5b fa bd
       -0.07254386 -0.029587919 -0.066618346 -0.12224439
000120 4d 0b 5a bb b1 74 e0 bd e6 00 dd bd dd aa 0e 3d
       -0.0033270896 -0.10959757 -0.10791187 0.034830917
000130 05 65 26 bd 2e 36 63 bc 78 60 58 bc 20 88 09 be
       -0.040623683 -0.013867898 -0.013206594 -0.13430834
000140 c5 65 8f bc e4 6d cc bb 95 d3 33 bd 2e 98 bb bd
       -0.017504582 -0.006238686 -0.043902952 -0.09159885
000150 16 2a bf bc f6 7d ca bd b7 d2 49 bd ff a2 c5 3d
       -0.023335498 -0.098873064 -0.04927322 0.0965023
000160 84 bc 90 3c b4 ab 5b bc 73 7f 8c 3d 03 d6 70 3c
       0.017668016 -0.013407636 0.068602465 0.014699462
000170 bb 9b 1e bd c8 69 83 3d a8 e8 1a 3d 6a c4 9a 3c
       -0.038722735 0.064166605 0.037819535 0.018892486
000180 4f 10 b3 bd e8 43 70 3d 68 99 08 bd f6 86 97 bc
       -0.08743345 0.05865851 -0.033349425 -0.018496972
000190 37 31 4e 3c ad 7f 16 3d 43 d6 d3 39 5a 3e ae 3d
       0.012584976 0.036742855 0.00040404694 0.08507986
0001a0 fd 08 d5 3d 6a 02 ae bc 1f 8d 9a 3d 55 99 9d 3d
       0.10402105 -0.021241385 0.07546448 0.076952614
0001b0 4f 64 45 3d 6c 6a 1e 3e c3 e0 11 3e 48 0f 06 bc
       0.048191365 0.15470284 0.14245896 -0.008182354
0001c0 20 59 f3 3d d2 56 f7 bb 1a 70 10 be b0 50 1f 3e
       0.118822336 -0.0075481916 -0.14105263 0.15558124
0001d0 ec 57 5c bc 02 80 a4 bd 4e b1 03 3e 62 b0 be 3d
       -0.013448697 -0.08032228 0.12860605 0.09310986
0001e0 c2 51 07 3d cd 43 0c 3d 4f 25 4b bc 90 ab 1b bd
       0.033036955 0.034244347 -0.012399032 -0.03800541
0001f0 25 9b 45 3d 56 e8 87 3d 2f 46 40 3e 75 79 89 3e
       0.04824366 0.066361114 0.18776773 0.26850477
000200 11 09 37 3e a8 16 c0 3d 19 1f 59 3e 66 8a 29 3e
       0.17874552 0.09379321 0.21203269 0.16556701
000210 f5 fa ff 3d 5d 19 5a 3e 88 e0 28 3e bc 8c 11 bd
       0.12499038 0.21298738 0.16491902 -0.035534605
000220 d3 8a 15 3e 81 8e 12 3e a6 aa 0d ba 7c 74 0f 3e
       0.14603738 0.14312173 -0.0005404152 0.14009279
000230 1f 37 c2 3d d8 1b c7 bd bc 8d ba 3c 32 3a e9 3a
       0.0948317 -0.09722108 0.022772662 0.0017793833
000240 de b5 b3 bd 96 b9 9b 3d c0 68 8f 3b 83 43 26 3c
       -0.08774923 0.07603757 0.004376501 0.010147932
000250 4d 21 af 3d 74 d9 8b 3d f6 63 92 bd 83 f8 36 3e
       0.085512735 0.06828585 -0.07147972 0.17868237
000260 63 d0 96 3d 8a 5f 23 bd 6d 5e 19 3e 75 59 a8 3d
       0.07363965 -0.039886035 0.14977427 0.082201876
000270 8c b3 a5 3d c0 73 0a 3e fd 12 a1 bd a7 c9 9e 3d
       0.080908865 0.13520718 -0.0786495 0.07753306
000280 50 08 0e 3d 96 ed f0 3b 20 58 40 bd df ec 54 bd
       0.034675896 0.007352541 -0.046959043 -0.05198371
000290 06 6d 07 be b1 1f 15 3d 80 f8 1a be d2 26 2f bd
       -0.13225183 0.036407176 -0.15133858 -0.04276163
0002a0 7e 81 52 bd 51 aa 24 be 2c a8 11 bd 5a 27 f2 3c
       -0.051393025 -0.16080596 -0.03556077 0.02955978
0002b0 43 26 39 be 25 25 d1 bd 0f 4e 01 be 19 89 08 be
       -0.18081002 -0.10212163 -0.12627433 -0.13333549
0002c0 45 e3 31 be bf ce 5a bd 0f 1a 67 be 63 bc a3 bd
       -0.17371853 -0.053419825 -0.22568534 -0.07994916
0002d0 d4 e4 e2 bd cd e8 01 be 33 a4 62 bd fa b5 c3 bd
       -0.11078802 -0.12686463 -0.055332374 -0.09556194
0002e0 64 54 10 be 8b 0c d2 bd de a1 35 bd 12 3a 01 be
       -0.14094692 -0.10256299 -0.04434382 -0.12619808
0002f0 a6 6a 46 bd 8e 46 a4 bc ef 14 48 be ac be cc bc
       -0.04844155 -0.020053174 -0.19539236 -0.024993263
000300 08 e4 a6 3c 46 15 47 be 4c 4e ed bd 9d 13 e3 3c
       0.020372406 -0.19441709 -0.115871996 0.027719313
000310 3a 9a d0 bd 5f 03 f8 bd 8b 65 7f bd 97 18 f7 bd
       -0.101856664 -0.12110018 -0.0623527 -0.12065237
000320 65 fc a9 bd 38 4e 38 3c 41 e6 4c be f9 7f 1b be
       -0.083000936 0.011249118 -0.2000971 -0.15185536
000330 9b c7 44 bd 85 86 0b be a8 dd 74 bd 5d 76 02 3d
       -0.04804192 -0.13625534 -0.0597817 0.03185116
000340 60 46 3b be 6d ab 81 bd 81 41 51 3c c9 99 61 bd
       -0.18288565 -0.06331525 0.012771965 -0.0550783
000350 ec 0f c2 bd 7b 89 33 bd b1 0a 6d bc 02 af 96 3b
       -0.09475693 -0.043832283 -0.014467881 0.0045984993
000360 8c 4c 5b bd 04 43 97 3d 45 4e 35 bd 97 8b 5e bc
       -0.053539798 0.07385829 -0.044264097 -0.0135830855
000370 44 36 41 3d 35 85 c3 bc 86 2e 23 bc fa c4 51 3c
       0.047170892 -0.023867229 -0.0099598225 0.0128033105
000380 63 2e 1c bd 00 94 bb bd e0 77 68 3d 13 95 53 bd
       -0.038130175 -0.09159088 0.056754947 -0.05165584
000390 31 4d 5f bd 87 c8 18 3d 64 45 40 bc 1b 3c d0 bd
       -0.054516975 0.037300613 -0.011735294 -0.10167714
0003a0 76 74 85 3c 87 51 19 3d 93 85 c7 bd a4 6c a5 3d
       0.016290884 0.037431266 -0.09742274 0.08077362
0003b0 f4 9f 38 3d c4 1f 03 be f9 4f 2f 3e 60 c6 b8 3c
       0.04507442 -0.12805086 0.17120351 0.02255553
0003c0 4a 85 ff bd e9 36 07 3e 66 da 0a bd 52 31 ef bd
       -0.12476595 0.1320454 -0.033899687 -0.11679329
0003d0 66 3a 07 3e 14 f0 c4 3d f4 ad 0c bd 10 aa e8 3c
       0.13205871 0.09616104 -0.034345582 0.028401405
0003e0 5b a7 aa 3d fa d2 07 3b f2 52 ba 3d d6 fa 99 bc
       0.08332702 0.0020725117 0.09097852 -0.018796366
0003f0 17 cf 23 3e c5 b2 10 3e b7 a0 bb 3d 58 90 00 3e
       0.15996967 0.14130695 0.09161513 0.12555063

sequential/dense_1/MatMul f4 [2, 8]
000000 e5 c3 7d be 60 15 80 3e ec 32 13 bf 0c 65 29 bf
       -0.24781759 0.25016308 -0.57499576 -0.6616981
000010 07 6f f8 3d f5 f4 89 3f 97 19 89 3e b5 eb 52 3e
       0.12130552 1.077788 0.26777336 0.20597728
000020 ab 19 9a bf 08 53 aa bf 10 67 44 3f c3 bd cc bd
       -1.2039083 -1.3306589 0.7671976 -0.09997132
000030 8d e5 37 bf 4b 5e 2f bf 31 15 95 bf b1 83 43 bf
       -0.7183464 -0.68503255 -1.1647092 -0.7637282
