runtime_data/green.tflite (tflite, 129628 bytes, 8 tensors)

sequential/dense/BiasAdd/ReadVariableOp f4 [16]
00000000: 9807 95be 294b 54be f934 3bbd 4423 b4bd
00000010: 463b 493f e65c 3a3f a989 503c 431d 43be
00000020: 7507 5d3f d1c7 88be 9b0b bfbc 6613 8cbe
00000030: 381d 5f3f 2b75 c33e cfe4 9abe 613a 69be
-0.29107356 -0.20731796 -0.045704816 -0.08795789 0.7860607 0.72798 0.012728133 -0.19054131
0.86339504 -0.26714948 -0.023320964 -0.2735855 0.8715396 0.3817533 -0.30252692 -0.22776176

sequential/dense_1/BiasAdd/ReadVariableOp f4 [2]
00000000: 447b 76bf 867b 763f
-0.9628184 0.9628223

sequential/conv2d/BiasAdd/ReadVariableOp f4 [8]
00000000: 7d60 9b39 af8f 5bbd 88a4 2f3d d547 173d
00000010: 85c4 9c3e a457 dd3d 40de e9be 88c9 a2bd
0.00029635793 -0.053603824 0.04288152 0.03693374 0.30618683 0.10807732 -0.45677376 -0.07948595

sequential/conv2d_1/BiasAdd/ReadVariableOp f4 [8]
00000000: 7b45 953d ca47 92be 8387 b3bd bbbf 493e
00000010: 48ae 36be a7ec 83be 0660 b93e 10ee 04be
0.07288643 -0.28570396 -0.08766081 0.19702046 -0.1783992 -0.2576649 0.36206073 -0.12981439

sequential/dense/MatMul f4 [16, 1920]
00000000: a926 ca3e ecf5 713d 8e63 043e 4d9b 71be
00000010: 748b 28be 0888 39be cfc6 e33c 72cb 2ebe
00000020: f1d0 0b3e 70d1 e3bc fa6e 163e 8cc9 50be
00000030: e853 493e d6e7 61be bd33 27bd 806c e5bd
00000040: 8710 55be 35db b73d 9b51 373d 0797 e7bd
00000050: b2e1 d6bd 9cfd a33d fcf5 e83d 1d9a 87be
00000060: b1ff a4bd ff5e 4abd 4e82 66bc 39a8 18be
00000070: afb2 e73c 5762 3e3e 8d68 dbbc a132 4fbe
00000080: c314 a43d 1deb 3ebd a88a f6bb 3ad4 34bd
00000090: 8e3c d83b 65c0 313e a0c9 443e c1e2 443d
000000a0: 4829 1f3e c3ed ffbc db1a 3bbd 1b56 7e3d
000000b0: b3ef 24be 3140 00bd 55e7 2ebe f08a 62be
000000c0: 8250 303e c87e b9bd e95d 8abd e2c3 01be
000000d0: ac43 233e 7b45 0ebc c705 d0be 7941 ebbd
000000e0: 8d70 4d3d 9af0 b5bd 32f5 35bc d549 063d
000000f0: 2725 423d 0c0b 3b3c 8e60 fdbd 91e4 29be
00000100: e322 10bd 2322 77be ae64 92bd c425 d43d
00000110: 2ca3 08bd 9f8e 19bd 3649 54bb 58d8 79bc
00000120: 262f 913c 6812 08be df41 93bd bef7 593e
00000130: 5028 1cbe 0b5f bfbd 9b27 23be dda7 dcba
00000140: 10a7 7e3d 3f0b 59be 7eda 8d3d 234e 953d
00000150: fca7 08be c464 d0bd 7874 63be 2033 17be
00000160: ee49 b9bd b5ea 51be cd0f ca3c 98e1 3b3e
00000170: a4ab 23be 4495 32bd 0bb8 97be 5cde 15be
00000180: 65a9 ae3e fe7e debd 5ec4 2e3d dc97 8a3e
00000190: 39b8 debd 17b5 8cbe 867e b9bd aef5 f7bc
000001a0: ef29 ce3e b5fa f1bd 5763 71bd 032b 3c3e
000001b0: 3cc6 66bd 7000 b5bd 9343 f03d 34f8 aa3c
000001c0: 1dea 3d3e 608c 143d b88e 53bd afa4 163e
000001d0: 1df5 833d 26be 4d3e 8fd9 dfbc 4b49 d43d
000001e0: c2d8 d83d df8c 40bb 9caa 0d3d 8b5f 13be
000001f0: 027c bbbd cf49 c13d bc14 b53d 469d a13d
00000200: 889d d03b b4d1 a2bb a9f2 fc3b 7c5e a4bd
00000210: 809d 27bd 518a 743e 8393 553d 72be 7f3e
00000220: bc69 4d3e 451d 88bd c287 3c3d d257 76be
00000230: c8dd 303e 4cfb 6ebd 7cdf b23d cbcf 8e3c
00000240: f2fc 203e 4437 083d 5984 ed3d 7537 6dbe
00000250: 07dc c73d e0fa c1bd 8198 d73d 22f9 d0bd
00000260: 71fc 443e b844 31bd a3fb ed3d 46d0 30be
00000270: 2348 813d 3870 d7bc d884 b6bd f65e d63d
00000280: 31b1 5fbd de95 163e 49ba 4c3d 3aa7 37bc
00000290: cd66 123e 046e 96be 5ba9 6bbd 749a 6e3e
000002a0: b3e5 3d3d 4b71 a23c 0843 683e 1f0c 123e
000002b0: 1e1f b9bd f23f a3be 6711 1d3e 286d 493e
000002c0: 2e3f 5c3d 8b6f ba3d 2b39 323e 22ab 443d
000002d0: 09e6 62bd 6fd4 adbd fe89 293e 3fec 20be
000002e0: d605 443e 7a66 e1bd d43d c3bb 8734 563c
000002f0: 8160 80bc 53b8 743d e0f3 953e 7a76 84be
00000300: 9c00 88bc e2d4 7cbd e42d 44bd 0243 853e
00000310: 54e8 43bd d168 043e 53c9 383e 180f dabd
00000320: e261 7e3e 63f8 b2bd 396b 4bbd d0b2 8c3e
00000330: a1ce 72be f88c c73d 26e5 1dbe 996c f4be
00000340: a73f f23d 06dc febd 476d e4bd 2082 f83d
00000350: ddaf 6fbe 1032 cb3d 1e54 bfbd 430c 1ebe
00000360: 9684 01bd 553b 61be fc22 5bbe 0dd8 a03d
00000370: 7848 053e 30be ff3d a1c2 48bc 4f33 0ebe
00000380: cd4b 96be b41a 53be d7a9 93be 98fc 49be
00000390: 7cf5 d339 5296 2bbc d827 3f3e 8607 3fbe
000003a0: c412 3abe 164b 8cbe 4469 49be 2da6 0c3c
000003b0: 4fd7 dbbd b9b9 803a 0508 cd3d 1883 56be
000003c0: 3794 d4bd 560b afbd dc24 8dbe bd1c 13bd
000003d0: dcb1 94be 9c62 11be ab05 0e3d d7cb 13bd
000003e0: 6327 bbbe 32e2 4abe 35eb 2fbe 1fc3 413d
000003f0: 26f1 ccbd 8a46 bf3d 098e 943c cafb 9fbd
0.3948262 0.05907242 0.12928602 -0.23594399 -0.16459447 -0.18118298 0.02780476 -0.17069796
0.13653924 -0.027809829 0.14690772 -0.20389384 0.19660914 -0.22061095 -0.040820826 -0.11202335
-0.20807086 0.08977357 0.04475556 -0.11308103 -0.10492267 0.080073565 0.11375043 -0.26484767
-0.08056582 -0.049407 -0.014069153 -0.14907922 0.028283445 0.18592201 -0.026783252 -0.20234157
0.080117725 -0.04661094 -0.0075238533 -0.044147708 0.0065990156 0.17358549 0.19217539 0.048067812
0.15543091 -0.031241303 -0.04567991 0.062093835 -0.16107063 -0.031311218 -0.17080434 -0.22123313
0.17218211 -0.09057385 -0.06756193 -0.1267238 0.15943784 -0.008683558 -0.40629408 -0.11487097
0.050156165 -0.08883782 -0.011105822 0.032785255 0.047398712 0.011416208 -0.12371932 -0.16591097
-0.03518952 -0.24134116 -0.071481094 0.10358766 -0.033358738 -0.03748953 -0.003239227 -0.015249334
0.017722677 -0.13288271 -0.07190298 0.21285912 -0.15249753 -0.093443 -0.15933077 -0.0016834695
0.062171042 -0.21195696 0.0692644 0.07290294 -0.13345331 -0.101754695 -0.22212398 -0.14765596
-0.09047304 -0.2049969 0.024665738 0.18347776 -0.15983444 -0.043599382 -0.296326 -0.14635605
0.34113613 -0.108640656 0.04266774 0.27068985 -0.108749814 -0.2748191 -0.090573356 -0.030268516
0.40266368 -0.11815397 -0.05893263 0.18375783 -0.056341395 -0.08837974 0.11731639 0.020870306
0.18546338 0.036266685 -0.05164978 0.1471126 0.06443236 0.20092067 -0.02732542 0.10365542
0.10588218 -0.002938084 0.034586534 -0.14391916 -0.09154512 0.09437906 0.088418454 0.07891326
0.0063664354 -0.004968846 0.007719357 -0.08025834 -0.040921688 0.23880889 0.05214263 0.24974993
0.20059866 -0.06646208 0.046027906 -0.24056938 0.17272103 -0.058345124 0.087340325 0.017433068
0.15721491 0.03325583 0.11597509 -0.23165686 0.09758764 -0.09471679 0.10527135 -0.10203768
0.19236924 -0.043278426 0.116202615 -0.1726695 0.06312587 -0.026298627 -0.08912057 0.10467331
-0.054612342 0.14705607 0.049982343 -0.0112093035 0.14297028 -0.2938081 -0.057534557 0.23301107
0.046361636 0.019829413 0.2268182 0.14262436 -0.09039138 -0.31884724 0.1533867 0.19670546
0.05377119 0.091033064 0.1740462 0.048014767 -0.05539516 -0.08487784 0.16556546 -0.1571512
0.19142851 -0.11005874 -0.005958298 0.013074047 -0.015671017 0.059746098 0.29287624 -0.2587164
-0.016601853 -0.06172646 -0.047895327 0.26027685 -0.047828987 0.1293061 0.18045549 -0.1064741
0.24842027 -0.08738782 -0.049662802 0.27480173 -0.23711635 0.097436845 -0.15419444 -0.47739103
0.11828547 -0.1244431 -0.111536555 0.121341944 -0.2340693 0.09921658 -0.09342216 -0.15434365
-0.031620584 -0.2199529 -0.21400064 0.078537084 0.13015926 0.12487447 -0.012253434 -0.1388676
-0.29354706 -0.20615655 -0.28840515 -0.19725263 0.00040427956 -0.010472851 0.18667543 -0.18655214
-0.18171221 -0.27401036 -0.19669062 0.008584541 -0.10734426 0.0009820975 0.10011295 -0.20948446
-0.10379832 -0.08547084 -0.27567184 -0.03591608 -0.29041946 -0.14197773 0.034673374 -0.03608307
-0.36553487 -0.19812849 -0.17179568 0.047305223 -0.10006933 0.09339626 0.018134134 -0.07811697

sequential/dense_1/MatMul f4 [2, 16]
00000000: e65d 9c3e 7cee 803f df03 aa3e d101 6bbe
00000010: 20bb cdbe 3513 723b cfb2 10bf b942 483f
00000020: 8c22 803e 7bf9 743f 0088 023f 6ae0 1b3f
00000030: 3d59 36be fc9b 013e 9500 ba3d 1841 753f
00000040: 6556 03bf 766b 45bf a987 2fbe 6e94 71be
00000050: 56a8 8ebe 4385 293e 45a9 c2be eb63 86bf
00000060: 01fe cc3e aad1 8cbf fb1a 3dbf 5f5f babe
00000070: 5bf4 0bbc 815a 223e 66ee 33bf 2653 b6bf
0.3054039 1.007278 0.33206078 -0.22949912 -0.40181828 0.0036937718 -0.5652284 0.7822681
0.25026357 0.95693177 0.5098877 0.60889304 -0.17807479 0.1265716 0.09082142 0.9580245
-0.513037 -0.771171 -0.17141594 -0.23591778 -0.27862805 0.16554742 -0.38019767 -1.0499243
0.4003754 -1.1001484 -0.73869294 -0.36400887 -0.008542146 0.15854837 -0.7028564 -1.4244125

sequential/conv2d/Conv2D f4 [8, 3, 3, 3]
00000000: aa43 69be 9ac1 c73e 14c1 7ebd 0204 0cbf
00000010: 7189 233e 7a3b 753d cc02 a1be 1bf1 ea3e
00000020: 65bf c53a d6b6 e9be c8a9 643e 2025 bdbd
00000030: 84eb 02bf 0be2 123e a3cf 73bd 1aab e8be
00000040: 31f6 853e 8a3f c83c dc6a a5bd 8cc1 6b3e
00000050: 24cc b9bc d54a b4be 3b8d 043f 5d88 ce3c
00000060: 19c0 2bbd 6cc5 e63e a857 963d 59a2 ac3d
00000070: e4df f2bc 3f25 ae3e cdf8 983d 9f0e 34be
00000080: 435f f73d 7ef7 3c3e a1d1 233c 301b 4dbd
00000090: f9e0 c23d 3e2a 43be 529d 933e 9885 51be
000000a0: 66cd 71bb d38b 2bbd 3f00 863d bb54 acbe
000000b0: 0fc4 373c e273 ab3d 9886 143e aed9 df3e
000000c0: b8d7 c73d 2e3a 8fbc c103 10be ce67 9abe
000000d0: 64cc fabe 0506 f1bd 5344 4abe c289 febd
000000e0: a6ad 66be 2359 853d 5143 90bd 464b b6be
000000f0: 04e8 87bd aa49 fcbd a1d9 c6bc bb74 893d
00000100: a9bf 0e3e 9bb3 a63d 13aa 113d 4b84 56bd
00000110: 45b9 febd 9894 1bbe 7767 a23e 9cf1 92bd
00000120: 4b58 963d 6d39 5d3d a039 0abd 5a6f 95be
00000130: 2fcf 8d3e 3265 9dbd 9091 a6be 1050 3abc
00000140: 9a67 bbbd 2eda e1bd 9253 a2bb af05 9c3e
00000150: b392 5a3d 30ac 14bc 7bed 96bd 9a7d 083d
00000160: 53f2 22be 6162 823e fffb d0be b83c 6c3d
00000170: 0a78 e03d cd7b 12bd 514c d7be 0b00 913e
00000180: 6ccc 92be 96e0 a0be 73f2 863d 3c63 c8bd
00000190: 6cfb 063e 73bc 3a3b 2425 9cbe 53c3 1bbe
000001a0: 2f22 563e fbaf f53c 26d0 4bbe 2221 c13e
000001b0: 0cbf 83bd c5e1 1c3d f227 67be ffd1 263e
000001c0: 10ed 423d 8922 6abe ddb5 303e 3d35 a4be
000001d0: 66db 1abd bd70 233d 12c7 dfbe e8be b0be
000001e0: f76d 5b3d ed3d 9bbe 4203 1bbd c0f1 1a3c
000001f0: fef7 89bd 55fa bdbd 8e7e 6c3e 041a c7be
00000200: 6d29 6fbe ceeb 753d 41ff 93be 5d6f 3fbe
00000210: cd4d ef3d 0969 da3d 82d0 643e 26ce c7be
00000220: 1c78 af3e a53f 64be 87a6 033d 7cbf f63d
00000230: adfe 893d d587 ddbe 37f0 e13e c42b 12be
00000240: 6dc5 9dbb 8ada 993e eb86 17be 11ac 94be
00000250: 6fc1 af3d 5da2 b1bd 47fb aabe 0d98 da3e
00000260: 171b fdbd 68d9 c6be b596 cd3e bb04 17be
00000270: 7adc 88bd fb89 9f3e 1148 04bd 1d82 bdbe
00000280: c4db bd3e c376 1bba 518c 25be aa04 8bbe
00000290: cb00 833e 1262 3f3e 781b 82be 1f99 303c
000002a0: fa0a 983e 9b75 9abd 34bc b13e d43b 433e
000002b0: 10d9 c6bb 5484 a53d fc9a cc3d 03aa 5fbd
000002c0: 4b69 d53e 2400 5f3d a98a e53d 3fd8 3b3e
000002d0: e50e 303e 7a46 53be b248 1abd d124 bf3d
000002e0: 4764 6e3d 1d6f 983e 3f07 d63e 75b8 073e
000002f0: 68a8 4b3e b2dc 94be 4413 b23e 6e42 0c3e
00000300: 7ff6 48bd 7f7d edbc 9fde 93be db9b 19bf
00000310: fb1d d0bd 40d6 6cbc 2116 013d a8b4 103c
00000320: ba8a 3bbd b252 a1bd bf47 c43d b4cd 86be
00000330: 2587 25be 63a5 a5bd 2273 b7be 1572 04be
00000340: 2c04 863e 105b 973e 5f80 1bbe 0e9d 1f3e
00000350: f670 543b 2400 29be 6c27 743e fc96 a73d
-0.22779718 0.39014894 -0.062195852 -0.54693615 0.15970398 0.059871174 -0.31447446 0.45887074
0.0015086947 -0.45647305 0.22330391 -0.09235597 -0.5114062 0.14344041 -0.05952419 -0.4544304
0.26164392 0.02444436 -0.080770224 0.23023051 -0.02268035 -0.35213342 0.51778 0.025211507
-0.041931245 0.45072496 0.07340938 0.08429403 -0.029647775 0.34012792 0.0746933 -0.17583703
0.120787166 0.18453786 0.00999871 -0.050074756 0.095155664 -0.19059083 0.28830963 -0.20461118
-0.0036896109 -0.041881394 0.06543016 -0.33658394 0.011216178 0.08371712 0.14504468 0.43720764
0.09757942 -0.017483797 -0.14063932 -0.30157322 -0.48984063 -0.11768726 -0.19752626 -0.12428619
-0.22527179 0.06511142 -0.070440896 -0.35604304 -0.0663605 -0.12318738 -0.024273695 0.06711718
0.139403 0.08139726 0.035562586 -0.05237226 -0.12437681 -0.15193403 0.31719562 -0.071749896
0.07341059 0.054009844 -0.03374636 -0.29186517 0.2769713 -0.07685317 -0.3253293 -0.011371627
-0.0915062 -0.110279426 -0.00495381 0.30473086 0.05336256 -0.009074256 -0.073695146 0.033322908
-0.15912752 0.25465682 -0.40817258 0.057675093 0.10960396 -0.035762597 -0.42050412 0.28320345
-0.28671587 -0.31421345 0.06589212 -0.097845525 0.13181847 0.0028493672 -0.30497086 -0.15211229
0.20911478 0.02999114 -0.19903621 0.3772059 -0.06432924 0.038301248 -0.22573832 0.16291045
0.04758936 -0.22864737 0.17256875 -0.32071868 -0.03780689 0.039902437 -0.43706566 -0.3452065
0.053571668 -0.30320683 -0.037844904 0.009457052 -0.06736754 -0.09276263 0.23095152 -0.38887036
-0.23355646 0.060039334 -0.2890568 -0.18694825 0.11684761 0.10664565 0.22345164 -0.39024466
0.34271324 -0.22289903 0.032141235 0.120482415 0.06738029 -0.43267694 0.44128582 -0.14274508
-0.0048147948 0.30049545 -0.14797561 -0.29037526 0.085818164 -0.086735465 -0.33394834 0.4269413
-0.123586826 -0.38837743 0.40154043 -0.14747898 -0.066826776 0.31159958 -0.03229529 -0.3701333
0.3708173 -0.00059304776 -0.16166808 -0.27151996 0.25586542 0.18689755 -0.25411582 0.010778694
0.29695874 -0.07541963 0.347139 0.19065791 -0.0060683563 0.0808188 0.099904984 -0.054605495
0.41681895 0.054443493 0.11208088 0.1834421 0.17193182 -0.20632353 -0.037666984 0.09333194
0.0582011 0.29772273 0.41802403 0.13253959 0.1988846 -0.29074627 0.34780324 0.13697216
-0.049063202 -0.028990505 -0.28880784 -0.6000344 -0.10161968 -0.014455378 0.031515244 0.008832134
-0.045786597 -0.07877101 0.09583997 -0.26328814 -0.16164835 -0.08088186 -0.35830027 -0.12934144
0.26175058 0.29561663 -0.15185688 0.15587255 0.0032415963 -0.1650396 0.23843163 0.08183095

sequential/conv2d_1/Conv2D f4 [8, 3, 3, 8]
00000000: 2abb cc3e b4fc 653e 9408 b43c 7e0e 56be
00000010: ff9f 9d3d 5343 b53c 703f fcbe d15d 833e
00000020: 7a45 1e3d 1273 09bf 8f8c ee3c f7a8 f0be
00000030: ee43 193e 2d98 093e 080c 6cbf 9b4e 1cbe
00000040: c7a7 773e ba8d 39bf 871d 84be cc6f d3be
00000050: 2840 febb 5262 113e 863c 83bf 761a 88bd
00000060: 7afc 493f 1438 ba3e 1df0 b43d c526 2f3d
00000070: c0e1 85bc 6b21 8a3e d224 08bf 1847 ef3e
00000080: 27b1 3e3f 4de0 31bf f89b af3e 5338 fcbe
00000090: ae6a 423b d198 833e a90a 37bf e469 813d
000000a0: 7b51 573f 9ae7 47bf 4807 883e 5965 e6be
000000b0: 4688 19be a92a d23e 027c debe 791f 5b3e
000000c0: a253 c93e adbd c73d 5278 0abe cc75 10bd
000000d0: 7d11 05bf 3c42 d73e af77 e5be a622 bf3c
000000e0: c023 4e3e bdd4 22bf df28 a23d e53d 6cbd
000000f0: 3744 50be c473 c23e 2d62 f3be 2e5a a3be
00000100: b986 46bd 7fd9 bcbe 584e 2a3e 38de 1ebd
00000110: 7bc6 73be f30c 283e 03ac 52be 11ab 2fbd
00000120: 8de8 d7bc 0f61 88be 88b3 0a3d 4c6e 5b3e
00000130: 9586 68bc 6881 a6be ab02 86be 458d e63c
00000140: 24d3 883d 9481 f2bd 3c3f 0d3c f3e3 193e
00000150: f839 d53c a9b7 28bf 4901 f6bc 9e02 bb3d
00000160: 1575 813e 6185 0c3e 9655 943d 3764 ad3e
00000170: 82fa ab3e 4f68 98be 9e47 ca3a 5f73 783d
00000180: b24b 803c fb0f 27be b0db 673d 3733 b83e
00000190: a54a 7d3e 6c16 75be d7e1 22be 29f0 aa3d
000001a0: 1e12 573e d882 6a3d bd9f 043e abc2 c83e
000001b0: 5d24 d43d 3197 e7be 3eca c43d 3354 a23c
000001c0: fae6 f03d 3a74 be3d 3e8d db3d 77a0 5b3d
000001d0: 530e febd 22f1 4ebe 6f2e 2fbe 7c3a 063d
000001e0: 154f 7f3e 991c 0dbe 52d6 473d e574 bb3d
000001f0: 03b0 1cbd 8aa7 c4be cdcd aabd 24a7 733e
00000200: 4dad d03c 68c2 a23c 02bb 94be 80a0 b33e
00000210: 2f04 1cbe abf1 efbe 4f35 23bd ed06 683e
00000220: 5c06 ac3c 0ff5 523e 4122 43be cd5e c73e
00000230: 900a 8dbe 65f9 e5be 84ba 7cbd 1089 c9bc
00000240: 8831 51be d299 93be 04f5 b13d a23c aa3e
00000250: bc5f af3e 0b22 b4bd 2890 51be 20fe dfbd
00000260: 9e96 6a3d ef27 b33c adcf 0a3e e550 933e
00000270: 3631 863e d5e5 b0be 6031 b9be 323e b1bd
00000280: 5fa2 053e 45eb 973d 5191 df3e 9c89 5a3b
00000290: 77b1 153e b5f5 b3bc 45d4 4dbe 1098 573e
000002a0: a18c 1dbf b5b6 713d 823f 843e 7141 9c3e
000002b0: ad53 883d 28d2 33be a3f0 26be e3d6 bdbd
000002c0: dbdb 9fbe 5a0e 6d3d e7e1 133e de5d dc3e
000002d0: 54d3 ddbc cfd0 7fbe 35f3 dbbc 111f 75be
000002e0: 7187 07bf 8ce0 803d 2a38 2abb e709 d63c
000002f0: 7159 59be fa4e 9abe 6000 093c 2863 4c3e
00000300: 1441 e53e ae29 053e a612 563d f3e3 443d
00000310: d2ef 493e 78f2 77be 9cea 493e 0972 d83e
00000320: 0124 f03e 8481 2b3e 65e6 5dbe 6ebb 54bd
00000330: 4709 7cbe e92b a8be 158c 9c3d 93be d73e
00000340: e318 903e 3d3e 463e c472 05be d1aa 153e
00000350: dd99 96be 715d 3bbe c062 453e 21b0 75bb
00000360: 0544 293f c2c9 04bf fa30 0dbe 144c bbbe
00000370: 85a8 37be 0c70 c23e 1416 87be 073b f7be
00000380: 5be8 313f 3857 ac3c e57f 87bd 796b b0be
00000390: a663 22bf 5260 2a3f e4c3 57be 5c33 dabc
000003a0: 1e3f 2a3f 0852 173e 72c0 b13d 2d04 97bd
000003b0: 9276 f8be 57ae 1a3f 252e 9ebe 6dd1 223d
000003c0: aa55 8f3f d47a ddbe 901d 853e 4a82 b1be
000003d0: 17ed 18bd 77af 223f 2d68 babc 38e1 c93e
000003e0: 0207 8b3f d397 4dbd 0c77 a139 5e47 c4bd
000003f0: 9d82 6ebe ce91 2e3f b2c8 90bc ec13 b43e
0.39986545 0.2245968 0.021976747 -0.20903966 0.076965325 0.02212683 -0.4926715 0.25657514
0.038640477 -0.5369121 0.029119758 -0.4700391 0.1496732 0.13436957 -0.9220586 -0.1526436
0.24185096 -0.7248188 -0.25803778 -0.41296232 -0.007759113 0.14197662 -1.0252845 -0.06645672
0.78900874 0.3637091 0.088348605 0.042761583 -0.016342998 0.2697862 -0.53181183 0.46733928
0.74489063 -0.6948288 0.34298682 -0.49261722 0.0029665637 0.25702527 -0.7150064 0.06319025
0.84108704 -0.7808777 0.26568055 -0.44999197 -0.1499339 0.41048172 -0.43453985 0.21398725
0.3932162 0.09752975 -0.13522461 -0.03526859 -0.5197981 0.4204272 -0.44817874 0.023331951
0.20130825 -0.6360586 0.07917952 -0.057676215 -0.20338522 0.37978947 -0.4753584 -0.3190474
-0.048468325 -0.36884686 0.16631448 -0.038786143 -0.23806183 0.1641119 -0.2057343 -0.04288775
-0.026356006 -0.2663655 0.03386262 0.21428794 -0.014192243 -0.32520604 -0.2617391 0.028143534
0.06680897 -0.11841121 0.008621033 0.15028362 0.026028618 -0.65905243 -0.03002991 0.091313586
0.2528464 0.13722755 0.07242887 0.3386552 0.3358956 -0.2976708 0.001543272 0.0606569
0.015661094 -0.1631469 0.056605995 0.35976574 0.24735506 -0.23934335 -0.15906464 0.08346588
0.21003005 0.05725369 0.1295156 0.3921102 0.10358498 -0.45232537 0.09608887 0.01981554
0.11762805 0.09299512 0.10720299 0.053619828 -0.12405076 -0.20209172 -0.17107557 0.03277062
0.24932511 -0.1378044 0.048788376 0.09153155 -0.038253795 -0.38409072 -0.08340035 0.23794228
0.025473261 0.01986809 -0.29048926 0.3508339 -0.15235971 -0.46864066 -0.03984576 0.22658892
0.020999126 0.20601295 -0.19056036 0.38939515 -0.2754712 -0.44916835 -0.061701313 -0.02460149
-0.20429051 -0.28828293 0.08689311 0.33249384 0.34252727 -0.08795556 -0.20465147 -0.10937142
0.057272546 0.021869628 0.13555785 0.28772655 0.2620942 -0.34550348 -0.36170483 -0.08654441
0.13050221 0.07417921 0.43665555 0.0033346182 0.14618479 -0.021967748 -0.20100506 0.21054101
-0.6154271 0.059012134 0.25829703 0.30518678 0.06656585 -0.17560637 -0.16302733 -0.09269502
-0.31222424 0.057875015 0.14441644 0.43040365 -0.027078308 -0.24981998 -0.026849369 -0.23937632
-0.5294104 0.06292829 -0.0025973418 0.026127769 -0.21225525 -0.3013838 0.008361906 0.199597
0.44776213 0.13004181 0.05226388 0.04806895 0.1972039 -0.24213588 0.19718403 0.42274502
0.4690247 0.16748625 -0.2166992 -0.05193656 -0.24612914 -0.32846 0.07643906 0.42137584
0.28143987 0.1935968 -0.13032061 0.14615943 -0.29414263 -0.18297364 0.19275951 -0.0037489014
0.66119415 -0.5187036 -0.13788214 -0.3658148 -0.17935379 0.3797611 -0.26384032 -0.48287222
0.6949517 0.021037683 -0.06616191 -0.34456995 -0.634333 0.66553223 -0.2107082 -0.026635818
0.6650256 0.14777386 0.08679284 -0.07373843 -0.48527962 0.6042227 -0.3089458 0.039750505
1.1198018 -0.43257773 0.25999117 -0.34669715 -0.03733548 0.6354899 -0.022754753 0.3942964
1.0861514 -0.05019362 0.0003079701 -0.09583925 -0.23292013 0.6819123 -0.017673824 0.3517145
