runtime_data/silver.tflite (tflite, 381524 bytes, 4 tensors)

dense_1/bias f4 [2]
000000 2b 22 9b 3d 3d 22 9b bd
       0.075748764 -0.0757489

dense/bias f4 [32]
000000 9b b9 e0 bb 66 06 04 bd 90 52 8f bb 82 56 b9 3d
       -0.0068580634 -0.032232665 -0.004373856 0.09049703
000010 76 ff 06 bd c4 f7 93 bb 8b d5 01 bd 29 82 05 bd
       -0.03295847 -0.00451562 -0.03169779 -0.032594834
000020 1b 21 1b bd 0a c1 ec bb ea 6c 2b 3d 03 ef ac 3d
       -0.03787337 -0.0072251605 0.041851915 0.08444025
000030 4c 76 9b bb ff 8c 08 bd ac ec 57 bd 36 48 a8 3d
       -0.0047443267 -0.03333759 -0.052715942 0.08216898
000040 25 bd c4 bb fb d1 fd bc d6 f9 b5 bb b4 e1 f1 bc
       -0.006003993 -0.030983916 -0.0055534644 -0.029526569
000050 03 da c2 bb 41 66 00 bd 10 0e 92 3e 56 c9 c6 bb
       -0.005946399 -0.031347517 0.28526354 -0.0060664816
000060 c0 6b c6 3d 6c c4 c4 bb c5 22 42 3e b9 6c df 3d
       0.096885204 -0.0060048606 0.18958576 0.10909409
000070 b0 47 08 3e 7b 67 64 3d 89 6a a9 bb 00 c8 c4 bb
       0.13308597 0.05576275 -0.0051701707 -0.006005287

sequential/dense/MatMul f4 [32, 2964]
000000 48 73 c6 3b 6b b0 2c bd 85 b8 25 bd b4 4c af 3c
       0.006056223 -0.042160433 -0.040459175 0.02139888
000010 5f 26 50 bb 3e 43 e1 3c 48 7e 03 3d 48 37 0d bd
       -0.0031761152 0.027497884 0.032102853 -0.03447655
000020 29 4f b2 bc 00 0c 90 bc 86 9a 4f ba 4e fd c7 3c
       -0.021766262 -0.017583847 -0.0007919449 0.024412777
000030 00 56 49 ba 14 9a 02 bd 47 c1 e1 bb 2e 54 27 3d
       -0.00076803565 -0.03188522 -0.0068894955 0.040851764
000040 f0 8e 73 bc 2a 86 f5 3b 04 4f 65 3c 9c 92 ad bc
       -0.014865622 0.0074928002 0.01399589 -0.021188073
000050 af 61 10 bd 91 59 2e bd ef 83 18 bd a3 a8 85 3c
       -0.03524941 -0.042565886 -0.037235197 0.016315764
000060 f4 fa 63 3c 04 78 49 bb 3c 46 91 3c 3c b5 0e bc
       0.013914812 -0.00307417 0.017733686 -0.008710202
000070 5e 97 30 3d d7 0a be bc 66 d1 8d 3c bc 39 1f 3d
       0.043113105 -0.023198528 0.017311763 0.03887342
000080 58 e1 99 bb 88 64 1c 3c bc 34 3d 3c 1a b5 42 3c
       -0.0046960525 0.009545453 0.011548217 0.011883998
000090 8d 3d dc bc 5c af 7b 3c 8a 5f f6 3c 60 da 65 bc
       -0.026884818 0.015361633 0.030074853 -0.014029115
0000a0 f0 24 3e 3b 4f 8b 15 3d 48 30 1d 3a 14 1e 93 3c
       0.0029013716 0.03650981 0.0005996269 0.017958678
0000b0 d6 7f 97 bb 58 e9 3f 3c 5e bd 35 bd be a1 9e 3c
       -0.0046233935 0.011713348 -0.044370048 0.019364234
0000c0 f1 99 de bc 30 e5 81 3b f7 ac 03 bd 53 ba c6 bb
       -0.027173014 0.003964089 -0.032147374 -0.006064692
0000d0 24 d7 2b 39 56 9a eb bc 4e 5f ac bc c1 e6 25 bd
       0.00016387977 -0.028760117 -0.021041539 -0.040503267
0000e0 d0 a5 11 3c 55 0b 6c bb 41 7c 15 bd 69 30 15 3d
       0.00888963 -0.0036017497 -0.03649545 0.03642312
0000f0 63 e3 6e 3b 3e 4d 79 bc e8 59 54 3c 6e 15 2c 3b
       0.003645145 -0.01521617 0.012960888 0.002625789
000100 ee da d6 bc 6b 07 03 bd de 63 98 3b b7 68 85 bb
       -0.02622744 -0.031989496 0.004650577 -0.004071321
000110 e8 7f 7b bc 5f 7c eb 3c 36 14 c6 ba 35 5d 1c 3b
       -0.015350319 0.028745828 -0.0015112225 0.0023859267
000120 56 34 a2 3b 06 4f ad 3c 45 22 b1 bc 7d 28 dd bb
       0.0049500866 0.021155845 -0.021622786 -0.0067492113
000130 82 8e 35 bd 66 36 e6 bc b6 00 3d bd 24 9e 36 bd
       -0.04432536 -0.028102111 -0.046143256 -0.04458441
000140 7a 2b bd bc 45 69 42 3c 87 93 05 3d 04 af da bb
       -0.02309202 0.0118659185 0.032611396 -0.0066736955
000150 46 ab b3 bc ba e9 61 bc 71 ba 1b 3d 5b 15 29 3d
       -0.021932255 -0.013788635 0.0380196 0.04128013
000160 6f 03 50 ba d0 c5 2e 3b 19 ee 7a bc 32 56 b1 3c
       -0.0007935082 0.0026668198 -0.015315556 0.021647546
000170 d3 b8 dd bc e1 36 2c bd a9 8d c5 3c 4a 26 df bc
       -0.02706567 -0.042044524 0.0241154 -0.027239937
000180 bc cf 20 3d 36 7a 59 3c ee e5 f6 bc 28 89 09 bc
       0.03926061 0.013273766 -0.030138936 -0.008394517
000190 6e ba 0d bd 44 77 28 bc 13 1a cf 3c 3b 13 c7 3c
       -0.03460162 -0.010282341 0.025280988 0.024301162
0001a0 43 1d e0 3c 52 ea e2 3c 56 60 45 3c 21 1e c7 3c
       0.027357703 0.027699623 0.012046894 0.024306359
0001b0 d6 f3 ed 3b 93 e7 8a bb cd 31 d5 bc 99 0d ce 3c
       0.0072617335 -0.0042390316 -0.026024723 0.025152968
0001c0 35 82 a7 bc c0 48 28 bd 11 dc aa bc 6e 6b 3d bd
       -0.02044783 -0.041085005 -0.020856889 -0.04624503
0001d0 6a 1c 01 3d f0 f6 8e bc 8e 23 14 bc 31 b7 38 3b
       0.03152124 -0.017451733 -0.00904168 0.0028185362
0001e0 b0 0d 8a 3c 48 e1 ea bc d0 3f e3 bc c1 90 19 bd
       0.01685223 -0.028671876 -0.02774039 -0.037491564
0001f0 27 ef 1b 3d 48 63 1a 3d e5 31 ca bb 06 3c 12 bd
       0.03806987 0.03769234 -0.0061704987 -0.035701774
000200 f1 56 06 bd dd 5b 0d 3d e7 ce d6 3b b4 51 bc bc
       -0.032797758 0.034511436 0.0065554264 -0.022988178
000210 b3 9a 78 3c d6 fd 15 3d 48 f2 bb bc 3b 0e 0e 3d
       0.015173602 0.03661903 -0.022942677 0.03468154
000220 b3 2a 2a bd fa 60 51 3c 34 d6 50 bd c1 fb 90 bc
       -0.041544627 0.012779469 -0.05098553 -0.01769817
000230 17 9f 43 3b 97 a0 32 bd 44 85 a4 3c 50 0b c9 3b
       0.0029849464 -0.04361018 0.020083077 0.0061353818
000240 cd d5 dc 3c 7f b3 16 bd 82 a6 9b bc fd e0 dc bc
       0.026957417 -0.036792275 -0.019000296 -0.026962752
000250 cc 8d 48 bd 2f e0 f0 3b 70 52 71 3c c5 17 2f bd
       -0.048963353 0.0073509435 0.014729127 -0.042747278
000260 7f 04 a7 3c 59 02 84 bc 61 c7 32 3c a1 85 e9 3c
       0.020387886 -0.0161144 0.010911793 0.028506102
000270 e2 63 9b bc 3b e3 0c 3d 22 a7 8b bc ca ec 18 3d
       -0.018968526 0.03439639 -0.017047469 0.037335195
000280 87 5b 9d 3b 6b bb 4e bb d2 38 8e bc c7 66 03 bb
       0.0048021707 -0.0031544815 -0.017361078 -0.0020050274
000290 16 08 f9 bc 30 da 78 bb 50 7d 26 bc 75 73 92 bb
       -0.030399363 -0.0037971847 -0.010161713 -0.00446933
0002a0 ea e3 2c bd b0 8f 0d 3c 16 2b 9e bc d0 27 56 bb
       -0.042209543 0.008640215 -0.019307654 -0.0032677539
0002b0 c6 4f 04 3d 8a 16 f3 3c a8 8a 39 bc b0 d3 b6 ba
       0.03230264 0.029673833 -0.011324562 -0.0013948586
0002c0 14 0f 88 3c 18 45 b8 bc 5e 9d d9 bc f4 02 2e bd
       0.016608752 -0.022493884 -0.026564296 -0.042483285
0002d0 e9 2e 2a bd c4 d4 a1 3b 9b 6e c1 bc b8 83 bf bc
       -0.041548643 0.0049386937 -0.023612311 -0.023378238
0002e0 b9 d0 b9 bc 3a 64 a2 3c 2c 57 2f 3d 96 82 30 3d
       -0.022682535 0.019823182 0.042807743 0.043093286
0002f0 40 ef a0 bc 8c 66 fe 3c c0 02 73 bc 2a 92 b1 3b
       -0.019645333 0.031054758 -0.014832199 0.0054190354
000300 9e 07 08 3d 08 08 d2 3b 16 5d 7d 3c 50 2e 43 bb
       0.03321039 0.006409649 0.015464088 -0.0029782243
000310 c0 6c 80 bb 44 22 1a bd 1d d6 22 bd f4 d1 31 bc
       -0.003919214 -0.037630334 -0.039754976 -0.010853279
000320 51 a8 66 3c d1 2f 23 3d 44 09 1d 3d 2a 4f fc 3c
       0.014078216 0.039840523 0.038338915 0.030799467
000330 0f fe a5 3c d3 6e fd bc e9 7a 22 3d 2e ec 40 bd
       0.020262746 -0.030936634 0.039667998 -0.04710024
000340 e3 e0 01 3d 47 d4 9f b9 8b e2 cb 3c a5 06 f9 bb
       0.03170861 -0.00030485002 0.024888298 -0.007599669
000350 aa a7 f8 bc c5 2b c5 3b be 10 04 bd cf 58 16 bd
       -0.030353386 0.0060171806 -0.03224253 -0.03670579
000360 9b b2 2b bd 3c d7 80 3c aa ad e0 3b c9 0b 45 bc
       -0.04191838 0.015727632 0.00685664 -0.012026736
000370 65 3e 19 bd ea 68 ba bc f3 a9 e6 bb 7b 57 aa 3c
       -0.03741302 -0.022755105 -0.0070393025 0.020793667
000380 2d c1 3d bd ff 6e 00 3d 04 5c 60 3c 79 a9 14 b9
       -0.046326805 0.031355854 0.013693813 -0.00014177513
000390 74 f1 92 3c 32 20 8c 3c df 39 41 bd 8c 79 c7 39
       0.0179374 0.017105196 -0.04717433 0.00038046797
0003a0 11 ef 11 3d 88 2a c2 bc 99 33 2b 3d b1 4c d2 bc
       0.035628382 -0.023701921 0.041797254 -0.025671335
0003b0 51 65 23 bd ef 1c cc bc 25 c9 45 bd 7e fa 19 bd
       -0.039891545 -0.02491614 -0.04828753 -0.037592404
0003c0 c5 74 0d 3d e4 b3 fb 3c 6d 3f 84 bc 19 52 c6 bc
       0.03453519 0.030725427 -0.016143525 -0.02420907
0003d0 47 1a 86 bb ee 72 9c 3b 72 e6 e5 3c 73 06 35 bd
       -0.004092488 0.004774443 0.028063986 -0.044195604
0003e0 ea 9e e8 bb 74 f2 1b 3d 57 d5 0e 3c ab ea 24 bd
       -0.007099022 0.03807302 0.008717856 -0.04026286
0003f0 c3 0e 0b bd 6c d6 08 3d ee ec 85 3c b5 91 23 3a
       -0.033949625 0.033407614 0.016348328 0.00062396686

sequential/dense_1/MatMul f4 [2, 32]
000000 ad 4a 1f 3e 1e 35 75 bc 4e e8 92 be 7c 51 ce 3e
       0.1555583 -0.014966277 -0.2869286 0.40296543
000010 a5 70 20 3c 75 20 af 3e 28 46 c3 3e 40 fb 87 be
       0.009792482 0.3420445 0.38139462 -0.26558876
000020 55 f5 42 be 19 a4 f8 3d 68 06 9c 3e 3b d0 af 3e
       -0.19038899 0.12140674 0.30473638 0.34338555
000030 45 96 d8 3d 3f 7f cc be c2 3a 0d bd 5f dd c7 be
       0.10575537 -0.3994083 -0.034479864 -0.3903608
000040 00 ae 8e be 85 0c 35 be 1a 2b a0 3e 73 b2 8f be
       -0.27867126 -0.17680557 0.31282884 -0.28065833
000050 fa 9c 74 3e 64 d6 b3 be bf 6e 6b 3e 18 40 4e 3e
       0.23888007 -0.35124505 0.22991465 0.20141637
000060 cd a8 42 3e 67 a9 76 3e 6e 16 4a 3e 49 2d c2 3e
       0.19009705 0.2408806 0.19735119 0.37925175
000070 61 59 3b 3e ac 6c f6 3d 52 0b 64 3e 76 75 9f 3e
       0.18295814 0.12032446 0.22269943 0.31144303
000080 63 ea 50 3e 2c 0b 8b 3e 4e df 1a be 79 e7 05 be
       0.20401911 0.2715696 -0.15124246 -0.13076581
000090 b5 1c a5 3e 7f 4c 6d be 45 54 cb 3e 91 20 c1 bc
       0.32248464 -0.23173712 0.3971273 -0.0235751
0000a0 cd 41 75 bd eb 67 9a 3e 73 84 22 bd 02 4f 8c be
       -0.059877206 0.30157408 -0.039677095 -0.27404028
0000b0 7e b4 13 be ce 06 20 bc 88 b4 d8 3e 53 a8 d0 be
       -0.14424321 -0.009767247 0.42325234 -0.4075342
0000c0 29 86 6c 3e 86 ef 5c 3e c2 df d0 3e 34 27 d9 3e
       0.23098053 0.21575746 0.40795714 0.42412722
0000d0 7d 8e 84 3e f3 59 91 3e 8e da ae bd 25 34 f9 3d
       0.2588996 0.28388938 -0.0853778 0.12168149
0000e0 43 f1 dd bc b1 30 18 3e 9f 5c d2 be 84 cc 9f be
       -0.027092582 0.14862324 -0.4108629 -0.3121072
0000f0 ad 7e 98 be a5 0c 10 be d2 02 61 3e 7e 8b b6 3c
       -0.29784146 -0.14067324 0.21973732 0.022283312
