runtime_data/silver.tflite (tflite, 82756 bytes, 4 tensors)

sequential/dense/BiasAdd/ReadVariableOp f4 [16]
-0.013542208 0.7169554 0.33888102 0.6809036 0.7046826 -0.013087855 -0.010358132 0.34369507
-0.0071779764 0.33587852 -0.008031592 0.50059223 0.50598866 -0.006823824 0.52342886 0.6325519
00000000: 23e0 5dbc 648a 373f d081 ad3e b34f 2e3f
00000010: 1466 343f 716e 56bc 28b5 29bc cdf8 af3e
00000020: 3b35 ebbb 45f8 ab3e f096 03bc d026 003f
00000030: 7988 013f 629a dfbb 6fff 053f ecee 213f

sequential/dense_1/BiasAdd/ReadVariableOp f4 [2]
-0.20214845 0.20214826
00000000: 0100 4fbe f4ff 4e3e

sequential/dense/MatMul f4 [16, 1260]
-0.04451322 -0.060679894 0.009143273 0.0134835625 0.0065968237 0.016213097 -0.025284598 0.044464815
-0.019854076 0.029620912 -0.019513456 0.05760428 0.046148807 -0.027578056 0.016677367 -0.05352425
-0.022431793 -0.05160159 0.037925024 -0.06339911 -0.066682145 -0.06378313 -0.023305628 0.05382784
-0.029502379 0.044951614 -0.054223936 0.0015628419 -0.06690153 0.029013148 -0.031627107 -0.00082260027
0.052728057 0.00858521 -0.023949584 0.022697253 -0.0076329797 -0.031456612 0.038916543 0.022789277
0.05748237 0.013603451 -0.001742486 -0.07108867 0.003724605 -0.024701811 -0.0019453946 -0.016159708
-0.025714325 0.008356625 0.002822633 -0.038738698 -0.023748634 0.03894799 0.015968092 -0.001904622
-0.02017964 0.02714455 0.05236633 -0.072820276 -0.058481988 0.02405626 -0.060918707 0.0016645148
-0.030833378 0.03388319 -0.03847934 -0.014070625 -0.014473798 -0.037889402 0.05218563 0.053838734
-0.027910093 0.045775298 0.052320633 -0.04028964 -0.04036241 -0.042264536 0.01393162 0.024985703
-0.047954157 -0.039616585 -0.047161177 -0.0019761568 -0.06195067 0.027171655 -0.0059187305 0.02283064
0.060600445 0.052284673 0.057507213 -0.036316786 -0.07018885 0.032790355 -0.027443754 -0.030032089
0.0031290527 0.024715636 -0.00045537256 0.027921095 0.04508025 -0.06797065 -0.055476103 0.057400115
-0.05816495 0.0458005 0.015156721 -0.035352033 -0.030817762 -0.05506891 0.042249866 0.041378133
-0.053902503 -0.03758234 0.031455252 0.029930988 0.052892413 -0.07536078 -0.035315074 0.018264338
-0.04370784 -0.041943066 -0.015257795 0.032643817 -0.07620256 0.012145687 -0.027736936 0.04741868
-0.049872436 0.03791885 -0.06770566 0.03941617 0.038904823 -0.06682057 -0.062271252 0.04376453
-0.0035365173 -0.016148413 0.050103776 -0.022241492 -0.06790387 -0.01369872 -0.06311334 -0.018978957
0.009804419 0.0031517642 0.011269822 -0.0012605566 -0.004908259 0.05772396 0.0027220314 0.03649395
0.044519257 -0.012254499 -0.067783505 0.04110819 -0.01840457 -0.012248968 -0.042904615 -0.009445433
-0.05277607 0.028665714 -0.022036439 0.013073929 0.014190712 0.0125492625 0.045699004 0.06082557
0.060365736 -0.017150294 -0.009538136 0.056853056 -0.0001851398 0.058125906 0.017829146 -0.040673878
0.022915779 -0.06826859 0.029644923 0.026924275 -0.057522044 -0.040066507 -0.059895225 -0.04228033
-0.052331395 -0.017633239 0.034960907 0.05047888 -0.062450714 -0.054394975 -0.022971388 0.050627753
-0.06937392 0.058837354 -0.025270049 0.027168946 -0.025936902 -0.015518739 0.05746075 -0.011116072
0.056236632 0.030601108 0.048189327 -0.03406283 -0.0047809267 0.040238023 -0.037622917 -0.018729968
-0.0336998 0.003212402 -0.04249379 0.0350597 0.05932674 0.040079284 -0.07547225 -0.0628957
-0.026640534 0.029614834 0.05824648 0.03505114 -0.037037097 0.046022344 0.059971813 0.050243173
-0.06267418 -0.04698722 -0.004671153 -0.04869388 -0.069984466 0.0033438795 0.04532937 0.05374114
-0.008209172 -0.05367506 -0.026832696 0.0029217477 0.03937864 0.0033797002 -0.011302029 -0.020144757
-0.05608518 0.0018144242 -0.034450673 0.022679212 -0.06072647 -0.036552183 -0.038356222 0.02586798
-0.014844846 0.050230727 0.028569542 0.0028203349 0.057033807 0.014115952 -0.02484652 0.039609034
00000000: 7f53 36bd 7b8b 78bd abcd 153c 29ea 5c3c
00000010: 2b2a d83b 54d1 843c a521 cfbc bd20 363d
00000020: 04a5 a2bc 8ea7 f23c afda 9fbc 77f2 6b3d
00000030: 8806 3d3d 60eb e1bc f99e 883c 3e3c 5bbd
00000040: e1c2 b7bc 305c 53bd 4557 1b3d 65d7 81bd
00000050: a690 88bd bba0 82bd 72eb bebc 957a 5c3d
00000060: f9ae f1bc 2f1f 383d eb19 5ebd 46d8 cc3a
00000070: ab03 89bd fbac ed3c 6d8b 01bd c5a3 57ba
00000080: 60f9 573d fba8 0c3c eb31 c4bc 97ef b93c
00000090: 131e fabb a6d8 00bd f466 1f3d 94b0 ba3c
000000a0: a272 6b3d 02e1 5e3c 2164 e4ba f096 91bd
000000b0: 8118 743b 745b cabc 9cfc feba 5d61 84bc
000000c0: d9a6 d2bc 3aea 083c ecfb 383b 78ac 1ebd
000000d0: 7f8c c2bc ed87 1f3d 84cf 823c 82a4 f9ba
000000e0: c64f a5bc 3f5e de3c 147e 563d cc22 95bd
000000f0: cf8a 6fbd a211 c53c e585 79bd d92b da3a
00000100: 4896 fcbc 1ac9 0a3d 839c 1dbd 7b88 66bc
00000110: 8223 6dbc eb31 1bbd 99c0 553d 0186 5c3d
00000120: b5a3 e4bc e17e 3b3d 294e 563d c006 25bd
00000130: 0e53 25bd 941d 2dbd 7341 643c d1ae cc3c
00000140: 946b 44bd 0045 22bd 142c 41bd 6982 01bb
00000150: fcbf 7dbd 1797 de3c e9f1 c1bb 5307 bb3c
00000160: 2c38 783d 7428 563d af8c 6b3d e9c0 14bd
00000170: 2cbf 8fbd 2e4f 063d b9d1 e0bc db05 f6bc
00000180: cb10 4d3b 7278 ca3c 12bf eeb9 c8ba e43c
00000190: 11a6 383d 3234 8bbd e93a 63bd 621c 6b3d
000001a0: 5f3e 6ebd 4e99 3b3d e553 783c 4bcd 10bd
000001b0: 8875 fcbc f08f 61bd 320e 2d3d 1e7c 293d
000001c0: dfc8 5cbd f1ef 19bd 39d7 003d d531 f53c
000001d0: b7a5 583d c156 9abd 8aa6 10bd 189f 953c
000001e0: fe06 33bd 7ecc 2bbd d5fb 79bc 86b5 053d
000001f0: 1610 9cbd b4fe 463c 9238 e3bc 173a 423d
00000200: 0a47 4cbd cc50 1b3d 44a9 8abd da72 213d
00000210: aa5a 1f3d 39d9 88bd 2410 7fbd 7042 333d
00000220: eac4 67bb ad49 84bc 9e39 4d3d ca33 b6bc
00000230: 2f11 8bbd 9970 60bc 9141 81bd c279 9bbc
00000240: b7a2 203c d48d 4e3b 0fa5 383c 4339 a5ba
00000250: 76d5 a0bb f66f 6c3d 1c64 323b ae7a 153d
00000260: d359 363d 18c7 48bc 14d2 8abd 1061 283d
00000270: 2ec5 96bc e5af 48bc c0bc 2fbd 04c1 1abc
00000280: b82b 58bd 5cd4 ea3c c385 b4bc 0834 563c
00000290: 2980 683c 6c9b 4d3c e12e 3b3d 3c24 793d
000002a0: 1042 773d c67e 8cbc d845 1cbc c0de 683d
000002b0: 1622 42b9 6e15 6e3d 6e0e 923c a799 26bd
000002c0: dfb9 bb3c 67d0 8bbd e9d9 f23c 4c90 dc3c
000002d0: 3c9c 6bbd c71c 24bd b254 75bd 242e 2dbd
000002e0: 7259 56bd 9573 90bc 2b33 0f3d f1c2 4e3d
000002f0: 52cc 7fbd 44cd 5ebd 7e2e bcbc 0c5f 4f3d
00000300: ea13 8ebd 70ff 703d 2203 cfbc 6991 de3c
00000310: a079 d4bc 4f42 7ebc f75b 6b3d 2f20 36bc
00000320: 6258 663d 2daf fa3c 2c62 453d 7785 0bbd
00000330: 52a9 9cbb a0d0 243d 7d1a 1abd 976f 99bc
00000340: cd08 0abd 2a87 523b f80d 2ebd c39a 0f3d
00000350: 9900 733d 2d2a 243d 3291 9abd 76cf 80bd
00000360: 403d dabc cf9a f23c dc93 6e3d c991 0f3d
00000370: 36b4 17bd ed81 3c3d 01a5 753d c9cb 4d3d
00000380: 525b 80bd ac75 40bd 7910 99bb 3c73 47bd
00000390: 0454 8fbd fd24 5b3b 4aab 393d ab1f 5c3d
000003a0: c37f 06bc 61da 5bbd 3ed0 dbbc cb7a 3f3b
000003b0: 7f4b 213d f67d 5d3b 252c 39bc 9e06 a5bc
000003c0: 93b9 65bd f9d1 ed3a 261c 0dbd c1c9 b93c
000003d0: 52bc 78bd beb7 15bd 6a1b 1dbd 16e9 d33c
000003e0: cc37 73bc bcbe 4d3d ac0a ea3c 5ed5 383b
000003f0: 489c 693d 9846 673c ee8a cbbc 153d 223d

sequential/dense_1/MatMul f4 [2, 16]
0.2719408 0.015566473 0.52728623 0.4257921 0.25898364 -0.43563694 0.14803426 0.54563266
0.068040825 0.5775903 0.3613724 0.4015012 0.15451004 -0.41378698 0.118936464 0.5445479
0.5453423 -0.9956286 0.12528665 -0.30481654 -0.6811922 0.037348676 0.3231974 -0.55246466
0.32022473 -0.16766626 0.41463286 -0.40368813 -0.12493754 0.072402984 -0.17561506 -0.51146233
00000000: d33b 8b3e 850a 7f3c 3bfc 063f 6c01 da3e
00000010: 8199 843e ce0b dfbe 4b96 173e 95ae 0b3f
00000020: fd58 8b3d f5dc 133f ce05 b93e 9191 cd3e
00000030: e137 1e3e e3db d3be f694 f33d 7e67 0b3f
00000040: 8e9b 0b3f 84e1 7ebf 254b 003e ea10 9cbe
00000050: 9d62 2ebf edfa 183d 217a a53e 536e 0dbf
00000060: 7ff4 a33e b4b0 2bbe c24a d43e 36b0 cebe
00000070: 41df ffbd 0448 943d 6fd4 33be 32ef 02bf
