runtime_data/silver.tflite (tflite, 82756 bytes, 4 tensors)

sequential/dense/BiasAdd/ReadVariableOp f4 [16]
00000000: 1d29 9ebc 2238 3abf 56e9 f0bb 4637 17bc
00000010: 738e 713f c143 3abf c164 663f 3180 c4bb
00000020: 81ca 2ebf 7c71 5d3f 71aa 30bf 5ca3 28bf
00000030: fbd5 cabb 66ef 723f 56e1 26bc 2fa6 2cbf
-0.019306714 -0.727419 -0.0073520346 -0.009229487 0.94357985 -0.72759634 0.8999749 -0.005996727
-0.68277746 0.8650129 -0.6901007 -0.65874267 -0.0061900592 0.94896543 -0.01018556 -0.67441076

sequential/dense_1/BiasAdd/ReadVariableOp f4 [2]
00000000: 674f 633f 824f 63bf
0.88793033 -0.88793194

sequential/dense/MatMul f4 [16, 1260]
00000000: f3a8 95bd 3199 363d 8f5e 95bd c7ad 573d
00000010: 6bcf 01bd 51ed 48bd 47ea 80bc 4742 153d
00000020: f1bc 4c3d 6ff6 123d 975b 77bc 91e7 10bd
00000030: 88f4 e33b a567 43bd 08af 98bd 6264 58bd
00000040: 6a3e 0abd 2cd3 263a 7e1f 78bd bbcb 273c
00000050: bd67 0cbd f696 7cbd 81c1 713c 2538 1f3d
00000060: 435f 82bd 45b9 acbb 9d41 04bc 2f9a 63bc
00000070: c5e6 53bc c378 f3bb b156 203c d1d4 973c
00000080: 986d 6d3c 7c43 61bd 6efb e93b 8013 ccbc
00000090: bd78 253d 48d1 833c 9999 8dbd 888c 4ebd
000000a0: 61b7 dabc d88e 793d 840f 44bd 03fd 15bd
000000b0: dba3 66bd 1117 5ebb 5993 82bd 0256 b73c
000000c0: a71e bbbc 5469 55bd 1c1b 263d 7166 31bb
000000d0: f0cc ba3c 95ae 1cbc 94b6 6abd 0700 733d
000000e0: d0aa f1bc 3214 723d 5d2a 123d 373d e7bc
000000f0: 1449 603d 0f5c 6cbc 8206 913c 908a 65bd
00000100: 10e5 d4bc c94e c43c a3e9 08bc 4a92 39bd
00000110: 0114 b33c b5f2 05bd 7bb3 0c3d d32e ff3c
00000120: 542a 743d a9bc 45bd 44b7 813c 46df 07bd
00000130: 43b0 cfbb 94db 063d 616d 943c db8b 413d
00000140: 2990 78bc 86fb 193d 5a8d 6fbd 7b05 073d
00000150: a136 13bd 03d3 373c 61c0 92bd b75d 583d
00000160: 108f 92bc 7fc5 c9bb 17c6 003c 8e0a 8139
00000170: 8cb5 1b3c 5104 1d3d ae70 97bd 1961 81bc
00000180: a22f 3a3c 289d 2fbd 1f08 50bd 44c1 93bd
00000190: 2449 70bd a0b8 383c 8952 8f3c 0cfc 5abd
000001a0: 4f78 c53c eccc 543d 5eff edbc 98e4 96bd
000001b0: 7280 5cbb 82b1 7dbd 8625 d93b a8b9 39bd
000001c0: 3aea 1fbd 5c46 7cbc 3500 b9bb 1cc3 ac3c
000001d0: bb4e 24bc fce5 5d3d d20d 37bd 59c3 243b
000001e0: c3ef 9a3b 7e88 7abd 814a 4f3d 65eb 0b3d
000001f0: e680 2dbd a6b0 8d3b bbc0 89bd d73a 7c3d
00000200: 50a6 c7bc 64f1 46bd d688 e03c 20b0 4dbd
00000210: 69b4 57bd b2b3 8ebd dbb2 4dbd efc9 8fbd
00000220: 82c4 13bc c663 c73c 4650 dcbc ef6e cfbb
00000230: 0aab 2f3d 9213 2dbd ad22 d33c 931d 95bd
00000240: 121a 363c 830b 33bd fe23 94bd 4ab7 8ebc
00000250: 675e 92bd 2873 cb3b 3527 d33a 2c82 423d
00000260: c9a6 2f3d 3261 6d3d ce48 773d 5187 a63c
00000270: fcd0 e33c 629f 85bc 0b1a 86bc 0bb5 d6bc
00000280: 3046 77bd e567 06bd f9a7 123d 5a9b c73c
00000290: 1e7f 77bd 463f 02bc da88 153d 9b0c b8bc
000002a0: 12ae 0fbd be8e 793c f053 99bc 88d2 90bd
000002b0: 2d8b fb3b cbbd 3f3d 3931 a938 e669 703d
000002c0: 1289 2e3b b09a 93bd 4259 a7bc b6b7 87bc
000002d0: 9011 98bd 306c 91bd 4fa3 b33c ad43 0ebd
000002e0: 0a37 4f3d eee7 1f3c 07ac 15bd 06cb 2d3d
000002f0: 08b3 5c3d 0c62 41bd 9737 80bd fd1a 68bb
00000300: 2c57 c9bc f30e 8a3b 6dbb b4bb 180a d1bc
00000310: fb04 97bd 74a7 293d 0ae3 b9bc c006 5d3d
00000320: 4772 85bd c688 293d b7ae 4dbd e918 783d
00000330: d78d d0bb d08e 91bd f1d0 613d 7d55 fa3c
00000340: 30b6 29bd 4da2 033d 5c31 b6bc bc8e 133d
00000350: e6a8 113d e06c 2f3d 4c2f babb 23ed 633d
00000360: e51e 8ebd 6857 543d 3c1b 8fbd bc2d 44bd
00000370: cffb b33c 9749 193d c24a a5bc 607c 4f3d
00000380: 87b6 883c b692 4abd af19 973c d219 4d3c
00000390: 7894 d5bc 0c5e 173b fa00 73bd d01f 293d
000003a0: c629 c2bc 342b 833b c500 74bd 0fe9 c33b
000003b0: 3392 0abc 905c f4bb 6492 7bbd b700 98bc
000003c0: 288a 033d aa6c d53b b39d c0bc 43f2 813c
000003d0: 9609 bcbc 8390 78bd 94cf 543d b498 ca3b
000003e0: 516d c1bc 0f82 1dbd 6b12 603c d48b f13c
000003f0: 3fac 063d dbb7 6cbd 8d5d 87bd ae1c 823c
-0.07307615 0.04457969 -0.07293426 0.05265596 -0.03169195 -0.049054448 -0.015736712 0.03644016
0.049984876 0.03587955 -0.01509752 -0.03537709 0.0069566406 -0.047706265 -0.074552596 -0.052830108
-0.03375093 0.00063638645 -0.06057691 0.010241444 -0.03427862 -0.061667405 0.014755608 0.038871903
-0.06365826 -0.0052711093 -0.008072284 -0.013891741 -0.012933438 -0.0074301674 0.009786294 0.018534096
0.014491461 -0.054996 0.0071405685 -0.024911642 0.040398348 0.016091004 -0.06914062 -0.05042699
-0.02669877 0.060927242 -0.04786636 -0.036618244 -0.05630861 -0.003388826 -0.063757606 0.022379879
-0.022841765 -0.0521024 0.040553197 -0.0027069116 0.0228028 -0.009563108 -0.057303026 0.059326198
-0.029500395 0.05910129 0.035684932 -0.028227432 0.054757193 -0.014426245 0.017703298 -0.056040347
-0.025988132 0.023963349 -0.008356485 -0.045305528 0.021860125 -0.032702167 0.034350853 0.031150257
0.05961068 -0.048275623 0.015834458 -0.033171915 -0.0063381507 0.03292425 0.018118562 0.047252517
-0.015171089 0.037593387 -0.058484413 0.03296421 -0.03594077 0.011219743 -0.071655996 0.05282375
-0.017890483 -0.0061575766 0.007859728 0.0002461266 0.009503733 0.038334195 -0.07394539 -0.01579337
0.011363896 -0.042874485 -0.050788995 -0.07214597 -0.058663502 0.011274487 0.01749541 -0.053463027
0.02410522 0.05195324 -0.029052433 -0.073678195 -0.0033645895 -0.061936863 0.0066267876 -0.04534307
-0.039041735 -0.015397634 -0.0056457766 0.02108913 -0.010028536 0.05417441 -0.044690914 0.002514085
0.004728289 -0.061165325 0.05060816 0.034160037 -0.042359255 0.0043240367 -0.067262135 0.06157955
-0.024371296 -0.04857005 0.027408998 -0.050216794 -0.052662287 -0.06967868 -0.050219398 -0.07020938
-0.009019019 0.024339568 -0.026893746 -0.006330363 0.042887725 -0.04225499 0.02577337 -0.072810315
0.011114614 -0.04371215 -0.072334275 -0.017421383 -0.07146912 0.006208796 0.0016109707 0.047487423
0.042883668 0.05795402 0.060372166 0.020328196 0.027809612 -0.016311351 -0.01636984 -0.026209375
-0.06036967 -0.032813925 0.035804722 0.02436607 -0.060423963 -0.007949656 0.036507465 -0.022466948
-0.035078116 0.015231786 -0.018716782 -0.07071406 0.007676503 0.04681186 8.0677164e-05 0.058694743
0.0026631993 -0.07207239 -0.020428304 -0.016567092 -0.07425225 -0.07100713 0.021928458 -0.03473251
0.0505896 0.009759886 -0.03654101 0.042429946 0.053881675 -0.047212645 -0.06260603 -0.0035416477
-0.0245777 0.004213208 -0.005515507 -0.025517508 -0.07373997 0.04141946 -0.022691268 0.053961515
-0.06515937 0.041390203 -0.05021545 0.06057063 -0.006364565 -0.071073174 0.055130903 0.030558342
-0.041433513 0.032137204 -0.022240333 0.036024794 0.035561465 0.04282844 -0.0056819078 0.055646073
-0.069394864 0.05184117 -0.069876164 -0.04789518 0.021970658 0.037423696 -0.020177249 0.050655723
0.016688598 -0.04945632 0.018444864 0.012518363 -0.026071772 0.0023096828 -0.059327103 0.041290104
-0.02370156 0.004002953 -0.059571046 0.0059787105 -0.008457708 -0.0074573234 -0.061418906 -0.018555028
0.032114178 0.006513198 -0.023512697 0.01586259 -0.02295379 -0.060684692 0.051955774 0.0061827544
-0.023611696 -0.03845411 0.013676266 0.02948562 0.03287911 -0.057792526 -0.0660964 0.015882816

sequential/dense_1/MatMul f4 [2, 16]
00000000: 13a1 44be 8253 903e 137c 943d 5cb7 04bf
00000010: 4c8d 1e3f dcce f2be f135 2c3f 9f7e 953d
00000020: 932a c2be 0afc e23e 7ed9 aabe 788b b1be
00000030: fee3 503d 805f 853c f8a5 213d b2dc 253d
00000040: 17a1 c63e 552d fc3e e476 4f3e 03b4 c43e
00000050: c726 233e 14ae 73be 4639 6dbf 3173 083e
00000060: 5dd9 d8bc e8da dbbe d5b1 9e3d d2a7 263f
00000070: e2c0 5f3d f720 20bf 3fca f43e 0411 c13e
-0.1920207 0.2818871 0.07250228 -0.51842284 0.6193435 -0.47423446 0.6726981 0.07299542
-0.37923107 0.44332916 -0.33369058 -0.3467672 0.05099868 0.01628089 0.03946492 0.040493675
0.38794777 0.49253336 0.20260197 0.38418588 0.15932761 -0.23796874 -0.9266552 0.13325192
-0.026470834 -0.4294045 0.077487625 0.65099823 0.054627307 -0.625503 0.47810552 0.37708294
