runtime_data/silver.tflite (tflite, 82580 bytes, 4 tensors)

dense_1/bias f4 [2]
0	0x3ed81016	0.42199773
1	0xbed8101d	-0.42199793

dense/bias f4 [16]
0	0x3edacbfc	0.42733753
1	0xbc96f003	-0.018424993
2	0x3efd2fc0	0.49450493
3	0x3ef424fe	0.47684473
4	0x3ef67810	0.48138475
5	0x3ef479fd	0.4774932
6	0x3eb6b8eb	0.35687956
7	0xbeadc58d	-0.33939782
8	0xbcab09fc	-0.020878784
9	0x3ed816e2	0.42204958
10	0xbeb75e7b	-0.3581427
11	0xbeb1caf5	-0.34725156
12	0x3f1e4caf	0.6183576
13	0x3edb003c	0.42773616
14	0x3ef32194	0.47486556
15	0x3ef93b5a	0.48678094

sequential/dense/MatMul f4 [16, 1260]
0	0x3c2dd476	0.010609737
1	0x3d519a7f	0.05117273
2	0xbca5010b	-0.020142099
3	0xbd2deafc	-0.042460427
4	0x3c258ce8	0.010104395
5	0x3d0c71a7	0.034288075
6	0xbd8e1791	-0.06938089
7	0xbc5d51f8	-0.013508312
8	0xbd41fed1	-0.047362152
9	0xbe024d73	-0.12724857
10	0x3cf13187	0.029442562
11	0xbd89af29	-0.06722862
12	0xbdcf122a	-0.101108864
13	0xbb6eb038	-0.0036420953
14	0xbdabcc67	-0.08388596
15	0xbda7400f	-0.08166515
16	0x3d71d06a	0.05903665
17	0xbd8f0cd0	-0.06984866
18	0xbe080ce8	-0.13286173
19	0xbced8f49	-0.028998988
20	0xbb4f3064	-0.0031614536
21	0xbddcba73	-0.1077775
22	0x3d4612af	0.04835766
23	0x3d05c06f	0.032654222
24	0xbd302b9b	-0.043010335
25	0x3d910e44	0.07082799
26	0x3cacb6c7	0.021083249
27	0x3c6519b5	0.01398318
28	0x3d9aa5fa	0.07551189
29	0x3d2bf501	0.0419817
30	0x3da5b08e	0.08090316
31	0x3d0de8ed	0.034645963
32	0x3cfaf44a	0.030634064
33	0x3c1077e0	0.008817643
34	0xbc32138f	-0.010868921
35	0xbd2cad36	-0.042157374
36	0x3d9c0b63	0.07619359
37	0x3d0961e0	0.033540606
38	0x3c085bda	0.00832268
39	0x3d25a8ef	0.04044431
40	0xbd1f97f5	-0.038963277
41	0x3d940cd5	0.0722901
42	0x3d82cf6e	0.0638722
43	0x3c177f07	0.009246594
44	0xbce821de	-0.028336462
45	0x3d1e8591	0.038701598
46	0xbcfcd452	-0.030862961
47	0x3c2ad294	0.010426182
48	0xbc3ad3e8	-0.011403061
49	0xb8c2c7be	-9.287846e-05
50	0x3d3f623b	0.04672454
51	0x3ccc2ae5	0.024922797
52	0xbdab1b36	-0.083547994
53	0x3ca73368	0.020410255
54	0x3d963cf4	0.07335845
55	0xbbe49783	-0.0069760694
56	0xbce4c3d1	-0.027925404
57	0x39ec580c	0.00045079028
58	0xbd835855	-0.064133324
59	0xbd8334c4	-0.064065486
60	0x3d72e2cb	0.059298318
61	0xbda2eb12	-0.07954992
62	0xbd2a4695	-0.04157122
63	0x3d4e3f0f	0.050353106
64	0xbd65601b	-0.055999856
65	0xbb570e40	-0.003281489
66	0x3da36fd9	0.079803176
67	0xbdba1254	-0.09085527
68	0xbc15f852	-0.009153442
69	0xb98a41b2	-0.00026370358
70	0xbdf7420d	-0.12073145
71	0xba157062	-0.0005700645
72	0xbd1fd867	-0.039024737
73	0xbdb77f99	-0.08959884
74	0xbcd952e7	-0.026528789
75	0x3db86344	0.090033084
76	0xbdf6373a	-0.120222524
77	0x3c4c730c	0.012478601
78	0x3d1ae63f	0.037817236
79	0xbdf1659d	-0.11786959
80	0xbd87bfae	-0.06628357
81	0x3d69d3fd	0.057086933
82	0xbdcc409e	-0.09973262
83	0x3c985416	0.018594783
84	0xbc34e2c6	-0.011040395
85	0xbde6a803	-0.112625144
86	0x3c2e5058	0.010639273
87	0x3d1dedcf	0.03855687
88	0xbd4197bc	-0.047263846
89	0x3cd98f6b	0.026557645
90	0x3d75b2c1	0.059984926
91	0xbd567bbc	-0.052364096
92	0xbcf491ed	-0.02985474
93	0x3da96fd4	0.08273283
94	0xbd772f7f	-0.06034803
95	0xba360070	-0.0006942814
96	0xbd06ce1a	-0.032911398
97	0x3d6ff5f3	0.058584165
98	0x3d9f7467	0.07785874
99	0x3d99c887	0.07508951
100	0xbd118309	-0.035525355
101	0xbc392c86	-0.011302119
102	0x3d6db346	0.058032297
103	0xbc080bc2	-0.0083035845
104	0x3c53f3ad	0.012936515
105	0xbd19b8d4	-0.03752978
106	0x3ce3dc59	0.02781503
107	0x3d5082fa	0.05090616
108	0x3dd1ffa1	0.102538355
109	0x3c1efe77	0.009704224
110	0x3d9aed18	0.07564753
111	0x3d308dbb	0.043103915
112	0x3e1328d2	0.1437104
113	0x3e023a80	0.12717628
114	0x3dc77906	0.0973988
115	0x3dc8db09	0.09807403
116	0x3df20e85	0.11819176
117	0xbb12b844	-0.0022387663
118	0x3e25ee85	0.16204269
119	0x3dc9c198	0.09851378
120	0x3db346bc	0.08753726
121	0x3e53095e	0.20609042
122	0x3e2b5c01	0.16734315
123	0x3dab29bc	0.083575696
124	0x3e71bfb9	0.23608293
125	0x3e7ae70f	0.24502204
126	0xbdb4bbe8	-0.08824903
127	0x3df1ffd3	0.11816373
128	0xbc9e343f	-0.019312022
129	0xbdfa9b87	-0.12236696
130	0xbb287240	-0.0025702864
131	0xbd296ad9	-0.041361663
132	0xbe02d0df	-0.1277499
133	0x3c36ca39	0.011156612
134	0xbcbd1e81	-0.023085834
135	0xbc685d6b	-0.014182429
136	0x3d2b3d81	0.0418067
137	0xbc638815	-0.013887425
138	0xbce06b7e	-0.027395006
139	0x3d49e2bc	0.049288496
140	0x3d4d96ac	0.05019252
141	0xbc6370bc	-0.013881858
142	0x3d94292d	0.07234416
143	0xbd02b33e	-0.03190922
144	0xbd976b69	-0.07393534
145	0x3d9fb088	0.077973425
146	0xbd84d229	-0.06485397
147	0xba070cb4	-0.0005151734
148	0x3b0e90ff	0.0021753905
149	0x3d55c2ce	0.052187733
150	0xbd87f9d0	-0.06639445
151	0x3db6c74b	0.08924731
152	0xbc86aec9	-0.016440766
153	0x3ced2f01	0.028953077
154	0x3d78944c	0.060688302
155	0x3d33b738	0.043875903
156	0xbd0adb0f	-0.033900317
157	0x3db1055f	0.086436026
158	0x3a977837	0.0011556213
159	0x3da3caab	0.0799764
160	0x3bd86397	0.006603669
161	0x3d4e889d	0.050423253
162	0x3c26c3ba	0.010178501
163	0xbb82409c	-0.003974987
164	0xbd241f32	-0.040068813
165	0x3cb472aa	0.022027332
166	0xbcf7a9c9	-0.030232327
167	0x3d03eb4b	0.032206815
168	0x3c259168	0.010105468
169	0xbcbdd094	-0.023170747
170	0x3c1cea79	0.009577387
171	0x3bd6bbc0	0.0065531433
172	0xbdca844d	-0.098885156
173	0x3c809c2f	0.015699474
174	0xbd318d58	-0.043347687
175	0xbcf65341	-0.030068995
176	0xbc678af8	-0.014132254
177	0x3d3e9685	0.046530265
178	0xbdcf85bc	-0.1013293
179	0xbcb28f15	-0.021796742
180	0xbca4469e	-0.020053204
181	0xbc8429d1	-0.01613322
182	0x3d3c8943	0.04602934
183	0xbc8ddb56	-0.017316502
184	0xbd074ccf	-0.033032235
185	0x3d020753	0.031745266
186	0x3d8853a5	0.06656579
187	0xbdd8eb7e	-0.105917916
188	0x3c1b7a78	0.009489648
189	0x3c797f13	0.015228051
190	0xbe0b5621	-0.13607074
191	0x3b91b7c7	0.004446957
192	0x3d40f787	0.04711106
193	0xbce6401d	-0.028106743
194	0xbcb48101	-0.02203417
195	0xbce566da	-0.028003145
196	0xbd88c66a	-0.066784695
197	0x3b9f70e2	0.0048657516
198	0xbcbc4ab9	-0.02298485
199	0xbdf18db1	-0.117946036
200	0xbcbcca8c	-0.0230458
201	0xbc07edcf	-0.008296444
202	0xbdda7a5d	-0.1066787
203	0x3c777710	0.01510407
204	0x3d14383c	0.03618644
205	0xbe1a6840	-0.1507883
206	0xbd6d28ce	-0.057900243
207	0xbd8c11a7	-0.068393044
208	0xbe1ddac7	-0.15415488
209	0xbdbae518	-0.091257274
210	0xbcd5cbd6	-0.026098173
211	0xbd15f6d5	-0.03661235
212	0xbd533409	-0.051563296
213	0xbd2a772b	-0.041617554
214	0xbd974df8	-0.07387918
215	0xbd6efba0	-0.058345437
216	0x3d3b4a29	0.04572502
217	0xbda3951d	-0.079874255
218	0xbd770133	-0.060303878
219	0x3cc8fefc	0.024535649
220	0xbc4adfbf	-0.012382447
221	0xbdae1749	-0.08500535
222	0xbd418247	-0.047243383
223	0xbd76e4a4	-0.060276642
224	0x3be3e4ef	0.0069547812
225	0x3d18ad2e	0.037274532
226	0xbcc22b4f	-0.023702292
227	0x3a673ec6	0.00088213047
228	0x3c5bfbac	0.0134267025
229	0xbd6e6842	-0.058204897
230	0x3daf30a6	0.08554201
231	0x3c6715ed	0.014104349
232	0x3d2175e8	0.039419085
233	0xbb983188	-0.0046445765
234	0xbc81d002	-0.015846256
235	0xbd346fa5	-0.044051785
236	0x3df26f46	0.1183763
237	0x3d92717b	0.07150551
238	0x3e0b34f9	0.13594426
239	0x3e1492d5	0.14509137
240	0xbd385710	-0.045004904
241	0x3d92662d	0.07148395
242	0x3d2858b3	0.041100215
243	0x3dc372db	0.09543391
244	0x3e3f39d9	0.18674411
245	0x3e02ec28	0.12785399
246	0x3daf56cf	0.08561479
247	0x3dd0768e	0.101788625
248	0x3e0b8c20	0.13627672
249	0x3ca0faaf	0.019650785
250	0x3e810774	0.25201
251	0x3e76171e	0.24032256
252	0xbbe21f15	-0.006900678
253	0x3d584d3a	0.052808024
254	0xbd67d98a	-0.056603946
255	0xbd9e6ef0	-0.077360034

sequential/dense_1/MatMul f4 [2, 16]
0	0x3f65f98f	0.8983392
1	0xbe27a12e	-0.16370079
2	0x3e4a6042	0.19763282
3	0x3e3de583	0.18544583
4	0x3f2ee00c	0.6831062
5	0x3ee7fb9b	0.45309147
6	0x3dfaaa58	0.12239522
7	0xbecf412d	-0.40479413
8	0xbe8a6d58	-0.27036548
9	0x3e61c9e9	0.22049679
10	0xbe4e475b	-0.20144407
11	0xbe401c95	-0.18760903
12	0x3eb1b1d9	0.34706
13	0x3f071bc6	0.52776754
14	0x3e2ed43f	0.17073153
15	0xbc3dedef	-0.011592372
16	0xbe7040ad	-0.23462172
17	0x3dbb6827	0.09150725
18	0xbf0f491f	-0.5597095
19	0xbea34b9b	-0.3189362
20	0xbedb0736	-0.4277894
21	0xbd80d80d	-0.062912084
22	0xbef06182	-0.46949393
23	0x3eab8984	0.33503354
24	0xbd93f6d1	-0.07224811
25	0xbf364f3f	-0.7121467
26	0x3f00d8ea	0.50330985
27	0x3f0b74b4	0.5447495
28	0x3ca95841	0.020671966
29	0xbf0e61df	-0.5561809
30	0xbe0a0b98	-0.13480985
31	0xbee21670	-0.44157743
